node {
  name: "Placeholder"
  op: "Placeholder"
  attr {
    key: "dtype"
    value {
      type: DT_FLOAT
    }
  }
  attr {
    key: "shape"
    value {
      shape {
        dim {
          size: -1
        }
        dim {
          size: -1
        }
        dim {
          size: -1
        }
        dim {
          size: 3
        }
      }
    }
  }
}
node {
  name: "img_mean"
  op: "Const"
  attr {
    key: "dtype"
    value {
      type: DT_FLOAT
    }
  }
  attr {
    key: "value"
    value {
      tensor {
        dtype: DT_FLOAT
        tensor_shape {
          dim {
            size: 1
          }
          dim {
            size: 1
          }
          dim {
            size: 1
          }
          dim {
            size: 3
          }
        }
        tensor_content: ")\\\367B\331\216\351B\305\340\317B"
      }
    }
  }
}
node {
  name: "sub"
  op: "Sub"
  input: "Placeholder"
  input: "img_mean"
  attr {
    key: "T"
    value {
      type: DT_FLOAT
    }
  }
}
node {
  name: "resnet_v1_101/Pad/paddings"
  op: "Const"
  attr {
    key: "dtype"
    value {
      type: DT_INT32
    }
  }
  attr {
    key: "value"
    value {
      tensor {
        dtype: DT_INT32
        tensor_shape {
          dim {
            size: 4
          }
          dim {
            size: 2
          }
        }
        tensor_content: "…"
      }
    }
  }
}
node {
  name: "resnet_v1_101/Pad"
  op: "Pad"
  input: "sub"
  input: "resnet_v1_101/Pad/paddings"
  attr {
    key: "T"
    value {
      type: DT_FLOAT
    }
  }
  attr {
    key: "Tpaddings"
    value {
      type: DT_INT32
    }
  }
}
node {
  name: "resnet_v1_101/conv1/weights/Initializer/truncated_normal/shape"
  op: "Const"
  attr {
    key: "_class"
    value {
      list {
        s: "loc:@resnet_v1_101/conv1/weights"
      }
    }
  }
  attr {
    key: "dtype"
    value {
      type: DT_INT32
    }
  }
  attr {
    key: "value"
    value {
      tensor {
        dtype: DT_INT32
        tensor_shape {
          dim {
            size: 4
          }
        }
        tensor_content: "\007\000\000\000\007\000\000\000\003\000\000\000@\000\000\000"
      }
    }
  }
}
node {
  name: "resnet_v1_101/conv1/weights/Initializer/truncated_normal/mean"
  op: "Const"
  attr {
    key: "_class"
    value {
      list {
        s: "loc:@resnet_v1_101/conv1/weights"
      }
    }
  }
  attr {
    key: "dtype"
    value {
      type: DT_FLOAT
    }
  }
  attr {
    key: "value"
    value {
      tensor {
        dtype: DT_FLOAT
        tensor_shape {
        }
        float_val: 0.0
      }
    }
  }
}
node {
  name: "resnet_v1_101/conv1/weights/Initializer/truncated_normal/stddev"
  op: "Const"
  attr {
    key: "_class"
    value {
      list {
        s: "loc:@resnet_v1_101/conv1/weights"
      }
    }
  }
  attr {
    key: "dtype"
    value {
      type: DT_FLOAT
    }
  }
  attr {
    key: "value"
    value {
      tensor {
        dtype: DT_FLOAT
        tensor_shape {
        }
        float_val: 0.13299275934696198
      }
    }
  }
}
node {
  name: "resnet_v1_101/conv1/weights/Initializer/truncated_normal/TruncatedNormal"
  op: "TruncatedNormal"
  input: "resnet_v1_101/conv1/weights/Initializer/truncated_normal/shape"
  attr {
    key: "T"
    value {
      type: DT_INT32
    }
  }
  attr {
    key: "_class"
    value {
      list {
        s: "loc:@resnet_v1_101/conv1/weights"
      }
    }
  }
  attr {
    key: "dtype"
    value {
      type: DT_FLOAT
    }
  }
  attr {
    key: "seed"
    value {
      i: 0
    }
  }
  attr {
    key: "seed2"
    value {
      i: 0
    }
  }
}
node {
  name: "resnet_v1_101/conv1/weights/Initializer/truncated_normal/mul"
  op: "Mul"
  input: "resnet_v1_101/conv1/weights/Initializer/truncated_normal/TruncatedNormal"
  input: "resnet_v1_101/conv1/weights/Initializer/truncated_normal/stddev"
  attr {
    key: "T"
    value {
      type: DT_FLOAT
    }
  }
  attr {
    key: "_class"
    value {
      list {
        s: "loc:@resnet_v1_101/conv1/weights"
      }
    }
  }
}
node {
  name: "resnet_v1_101/conv1/weights/Initializer/truncated_normal"
  op: "AddV2"
  input: "resnet_v1_101/conv1/weights/Initializer/truncated_normal/mul"
  input: "resnet_v1_101/conv1/weights/Initializer/truncated_normal/mean"
  attr {
    key: "T"
    value {
      type: DT_FLOAT
    }
  }
  attr {
    key: "_class"
    value {
      list {
        s: "loc:@resnet_v1_101/conv1/weights"
      }
    }
  }
}
node {
  name: "resnet_v1_101/conv1/weights"
  op: "VarHandleOp"
  attr {
    key: "_class"
    value {
      list {
        s: "loc:@resnet_v1_101/conv1/weights"
      }
    }
  }
  attr {
    key: "allowed_devices"
    value {
      list {
      }
    }
  }
  attr {
    key: "container"
    value {
      s: ""
    }
  }
  attr {
    key: "dtype"
    value {
      type: DT_FLOAT
    }
  }
  attr {
    key: "shape"
    value {
      shape {
        dim {
          size: 7
        }
        dim {
          size: 7
        }
        dim {
          size: 3
        }
        dim {
          size: 64
        }
      }
    }
  }
  attr {
    key: "shared_name"
    value {
      s: "resnet_v1_101/conv1/weights"
    }
  }
}
node {
  name: "resnet_v1_101/conv1/weights/IsInitialized/VarIsInitializedOp"
  op: "VarIsInitializedOp"
  input: "resnet_v1_101/conv1/weights"
}
node {
  name: "resnet_v1_101/conv1/weights/Assign"
  op: "AssignVariableOp"
  input: "resnet_v1_101/conv1/weights"
  input: "resnet_v1_101/conv1/weights/Initializer/truncated_normal"
  attr {
    key: "dtype"
    value {
      type: DT_FLOAT
    }
  }
}
node {
  name: "resnet_v1_101/conv1/weights/Read/ReadVariableOp"
  op: "ReadVariableOp"
  input: "resnet_v1_101/conv1/weights"
  attr {
    key: "dtype"
    value {
      type: DT_FLOAT
    }
  }
}
node {
  name: "resnet_v1_101/conv1/kernel/Regularizer/l2_regularizer/scale"
  op: "Const"
  attr {
    key: "dtype"
    value {
      type: DT_FLOAT
    }
  }
  attr {
    key: "value"
    value {
      tensor {
        dtype: DT_FLOAT
        tensor_shape {
        }
        float_val: 9.999999747378752e-05
      }
    }
  }
}
node {
  name: "resnet_v1_101/conv1/kernel/Regularizer/l2_regularizer/L2Loss/ReadVariableOp"
  op: "ReadVariableOp"
  input: "resnet_v1_101/conv1/weights"
  attr {
    key: "dtype"
    value {
      type: DT_FLOAT
    }
  }
}
node {
  name: "resnet_v1_101/conv1/kernel/Regularizer/l2_regularizer/L2Loss"
  op: "L2Loss"
  input: "resnet_v1_101/conv1/kernel/Regularizer/l2_regularizer/L2Loss/ReadVariableOp"
  attr {
    key: "T"
    value {
      type: DT_FLOAT
    }
  }
}
node {
  name: "resnet_v1_101/conv1/kernel/Regularizer/l2_regularizer"
  op: "Mul"
  input: "resnet_v1_101/conv1/kernel/Regularizer/l2_regularizer/scale"
  input: "resnet_v1_101/conv1/kernel/Regularizer/l2_regularizer/L2Loss"
  attr {
    key: "T"
    value {
      type: DT_FLOAT
    }
  }
}
node {
  name: "resnet_v1_101/conv1/Conv2D/ReadVariableOp"
  op: "ReadVariableOp"
  input: "resnet_v1_101/conv1/weights"
  attr {
    key: "dtype"
    value {
      type: DT_FLOAT
    }
  }
}
node {
  name: "resnet_v1_101/conv1/Conv2D"
  op: "Conv2D"
  input: "resnet_v1_101/Pad"
  input: "resnet_v1_101/conv1/Conv2D/ReadVariableOp"
  attr {
    key: "T"
    value {
      type: DT_FLOAT
    }
  }
  attr {
    key: "data_format"
    value {
      s: "NHWC"
    }
  }
  attr {
    key: "dilations"
    value {
      list {
        i: 1
        i: 1
        i: 1
        i: 1
      }
    }
  }
  attr {
    key: "explicit_paddings"
    value {
      list {
      }
    }
  }
  attr {
    key: "padding"
    value {
      s: "VALID"
    }
  }
  attr {
    key: "strides"
    value {
      list {
        i: 1
        i: 2
        i: 2
        i: 1
      }
    }
  }
  attr {
    key: "use_cudnn_on_gpu"
    value {
      b: true
    }
  }
}
node {
  name: "resnet_v1_101/conv1/BatchNorm/gamma/Initializer/ones"
  op: "Const"
  attr {
    key: "_class"
    value {
      list {
        s: "loc:@resnet_v1_101/conv1/BatchNorm/gamma"
      }
    }
  }
  attr {
    key: "dtype"
    value {
      type: DT_FLOAT
    }
  }
  attr {
    key: "value"
    value {
      tensor {
        dtype: DT_FLOAT
        tensor_shape {
          dim {
            size: 64
          }
        }
        float_val: 1.0
      }
    }
  }
}
node {
  name: "resnet_v1_101/conv1/BatchNorm/gamma"
  op: "VarHandleOp"
  attr {
    key: "_class"
    value {
      list {
        s: "loc:@resnet_v1_101/conv1/BatchNorm/gamma"
      }
    }
  }
  attr {
    key: "allowed_devices"
    value {
      list {
      }
    }
  }
  attr {
    key: "container"
    value {
      s: ""
    }
  }
  attr {
    key: "dtype"
    value {
      type: DT_FLOAT
    }
  }
  attr {
    key: "shape"
    value {
      shape {
        dim {
          size: 64
        }
      }
    }
  }
  attr {
    key: "shared_name"
    value {
      s: "resnet_v1_101/conv1/BatchNorm/gamma"
    }
  }
}
node {
  name: "resnet_v1_101/conv1/BatchNorm/gamma/IsInitialized/VarIsInitializedOp"
  op: "VarIsInitializedOp"
  input: "resnet_v1_101/conv1/BatchNorm/gamma"
}
node {
  name: "resnet_v1_101/conv1/BatchNorm/gamma/Assign"
  op: "AssignVariableOp"
  input: "resnet_v1_101/conv1/BatchNorm/gamma"
  input: "resnet_v1_101/conv1/BatchNorm/gamma/Initializer/ones"
  attr {
    key: "dtype"
    value {
      type: DT_FLOAT
    }
  }
}
node {
  name: "resnet_v1_101/conv1/BatchNorm/gamma/Read/ReadVariableOp"
  op: "ReadVariableOp"
  input: "resnet_v1_101/conv1/BatchNorm/gamma"
  attr {
    key: "dtype"
    value {
      type: DT_FLOAT
    }
  }
}
node {
  name: "resnet_v1_101/conv1/BatchNorm/beta/Initializer/zeros"
  op: "Const"
  attr {
    key: "_class"
    value {
      list {
        s: "loc:@resnet_v1_101/conv1/BatchNorm/beta"
      }
    }
  }
  attr {
    key: "dtype"
    value {
      type: DT_FLOAT
    }
  }
  attr {
    key: "value"
    value {
      tensor {
        dtype: DT_FLOAT
        tensor_shape {
          dim {
            size: 64
          }
        }
        float_val: 0.0
      }
    }
  }
}
node {
  name: "resnet_v1_101/conv1/BatchNorm/beta"
  op: "VarHandleOp"
  attr {
    key: "_class"
    value {
      list {
        s: "loc:@resnet_v1_101/conv1/BatchNorm/beta"
      }
    }
  }
  attr {
    key: "allowed_devices"
    value {
      list {
      }
    }
  }
  attr {
    key: "container"
    value {
      s: ""
    }
  }
  attr {
    key: "dtype"
    value {
      type: DT_FLOAT
    }
  }
  attr {
    key: "shape"
    value {
      shape {
        dim {
          size: 64
        }
      }
    }
  }
  attr {
    key: "shared_name"
    value {
      s: "resnet_v1_101/conv1/BatchNorm/beta"
    }
  }
}
node {
  name: "resnet_v1_101/conv1/BatchNorm/beta/IsInitialized/VarIsInitializedOp"
  op: "VarIsInitializedOp"
  input: "resnet_v1_101/conv1/BatchNorm/beta"
}
node {
  name: "resnet_v1_101/conv1/BatchNorm/beta/Assign"
  op: "AssignVariableOp"
  input: "resnet_v1_101/conv1/BatchNorm/beta"
  input: "resnet_v1_101/conv1/BatchNorm/beta/Initializer/zeros"
  attr {
    key: "dtype"
    value {
      type: DT_FLOAT
    }
  }
}
node {
  name: "resnet_v1_101/conv1/BatchNorm/beta/Read/ReadVariableOp"
  op: "ReadVariableOp"
  input: "resnet_v1_101/conv1/BatchNorm/beta"
  attr {
    key: "dtype"
    value {
      type: DT_FLOAT
    }
  }
}
node {
  name: "resnet_v1_101/conv1/BatchNorm/moving_mean/Initializer/zeros"
  op: "Const"
  attr {
    key: "_class"
    value {
      list {
        s: "loc:@resnet_v1_101/conv1/BatchNorm/moving_mean"
      }
    }
  }
  attr {
    key: "dtype"
    value {
      type: DT_FLOAT
    }
  }
  attr {
    key: "value"
    value {
      tensor {
        dtype: DT_FLOAT
        tensor_shape {
          dim {
            size: 64
          }
        }
        float_val: 0.0
      }
    }
  }
}
node {
  name: "resnet_v1_101/conv1/BatchNorm/moving_mean"
  op: "VarHandleOp"
  attr {
    key: "_class"
    value {
      list {
        s: "loc:@resnet_v1_101/conv1/BatchNorm/moving_mean"
      }
    }
  }
  attr {
    key: "allowed_devices"
    value {
      list {
      }
    }
  }
  attr {
    key: "container"
    value {
      s: ""
    }
  }
  attr {
    key: "dtype"
    value {
      type: DT_FLOAT
    }
  }
  attr {
    key: "shape"
    value {
      shape {
        dim {
          size: 64
        }
      }
    }
  }
  attr {
    key: "shared_name"
    value {
      s: "resnet_v1_101/conv1/BatchNorm/moving_mean"
    }
  }
}
node {
  name: "resnet_v1_101/conv1/BatchNorm/moving_mean/IsInitialized/VarIsInitializedOp"
  op: "VarIsInitializedOp"
  input: "resnet_v1_101/conv1/BatchNorm/moving_mean"
}
node {
  name: "resnet_v1_101/conv1/BatchNorm/moving_mean/Assign"
  op: "AssignVariableOp"
  input: "resnet_v1_101/conv1/BatchNorm/moving_mean"
  input: "resnet_v1_101/conv1/BatchNorm/moving_mean/Initializer/zeros"
  attr {
    key: "dtype"
    value {
      type: DT_FLOAT
    }
  }
}
node {
  name: "resnet_v1_101/conv1/BatchNorm/moving_mean/Read/ReadVariableOp"
  op: "ReadVariableOp"
  input: "resnet_v1_101/conv1/BatchNorm/moving_mean"
  attr {
    key: "dtype"
    value {
      type: DT_FLOAT
    }
  }
}
node {
  name: "resnet_v1_101/conv1/BatchNorm/moving_variance/Initializer/ones"
  op: "Const"
  attr {
    key: "_class"
    value {
      list {
        s: "loc:@resnet_v1_101/conv1/BatchNorm/moving_variance"
      }
    }
  }
  attr {
    key: "dtype"
    value {
      type: DT_FLOAT
    }
  }
  attr {
    key: "value"
    value {
      tensor {
        dtype: DT_FLOAT
        tensor_shape {
          dim {
            size: 64
          }
        }
        float_val: 1.0
      }
    }
  }
}
node {
  name: "resnet_v1_101/conv1/BatchNorm/moving_variance"
  op: "VarHandleOp"
  attr {
    key: "_class"
    value {
      list {
        s: "loc:@resnet_v1_101/conv1/BatchNorm/moving_variance"
      }
    }
  }
  attr {
    key: "allowed_devices"
    value {
      list {
      }
    }
  }
  attr {
    key: "container"
    value {
      s: ""
    }
  }
  attr {
    key: "dtype"
    value {
      type: DT_FLOAT
    }
  }
  attr {
    key: "shape"
    value {
      shape {
        dim {
          size: 64
        }
      }
    }
  }
  attr {
    key: "shared_name"
    value {
      s: "resnet_v1_101/conv1/BatchNorm/moving_variance"
    }
  }
}
node {
  name: "resnet_v1_101/conv1/BatchNorm/moving_variance/IsInitialized/VarIsInitializedOp"
  op: "VarIsInitializedOp"
  input: "resnet_v1_101/conv1/BatchNorm/moving_variance"
}
node {
  name: "resnet_v1_101/conv1/BatchNorm/moving_variance/Assign"
  op: "AssignVariableOp"
  input: "resnet_v1_101/conv1/BatchNorm/moving_variance"
  input: "resnet_v1_101/conv1/BatchNorm/moving_variance/Initializer/ones"
  attr {
    key: "dtype"
    value {
      type: DT_FLOAT
    }
  }
}
node {
  name: "resnet_v1_101/conv1/BatchNorm/moving_variance/Read/ReadVariableOp"
  op: "ReadVariableOp"
  input: "resnet_v1_101/conv1/BatchNorm/moving_variance"
  attr {
    key: "dtype"
    value {
      type: DT_FLOAT
    }
  }
}
node {
  name: "resnet_v1_101/conv1/BatchNorm/ReadVariableOp"
  op: "ReadVariableOp"
  input: "resnet_v1_101/conv1/BatchNorm/gamma"
  attr {
    key: "dtype"
    value {
      type: DT_FLOAT
    }
  }
}
node {
  name: "resnet_v1_101/conv1/BatchNorm/ReadVariableOp_1"
  op: "ReadVariableOp"
  input: "resnet_v1_101/conv1/BatchNorm/beta"
  attr {
    key: "dtype"
    value {
      type: DT_FLOAT
    }
  }
}
node {
  name: "resnet_v1_101/conv1/BatchNorm/FusedBatchNormV3/ReadVariableOp"
  op: "ReadVariableOp"
  input: "resnet_v1_101/conv1/BatchNorm/moving_mean"
  attr {
    key: "dtype"
    value {
      type: DT_FLOAT
    }
  }
}
node {
  name: "resnet_v1_101/conv1/BatchNorm/FusedBatchNormV3/ReadVariableOp_1"
  op: "ReadVariableOp"
  input: "resnet_v1_101/conv1/BatchNorm/moving_variance"
  attr {
    key: "dtype"
    value {
      type: DT_FLOAT
    }
  }
}
node {
  name: "resnet_v1_101/conv1/BatchNorm/FusedBatchNormV3"
  op: "FusedBatchNormV3"
  input: "resnet_v1_101/conv1/Conv2D"
  input: "resnet_v1_101/conv1/BatchNorm/ReadVariableOp"
  input: "resnet_v1_101/conv1/BatchNorm/ReadVariableOp_1"
  input: "resnet_v1_101/conv1/BatchNorm/FusedBatchNormV3/ReadVariableOp"
  input: "resnet_v1_101/conv1/BatchNorm/FusedBatchNormV3/ReadVariableOp_1"
  attr {
    key: "T"
    value {
      type: DT_FLOAT
    }
  }
  attr {
    key: "U"
    value {
      type: DT_FLOAT
    }
  }
  attr {
    key: "data_format"
    value {
      s: "NHWC"
    }
  }
  attr {
    key: "epsilon"
    value {
      f: 1.0009999641624745e-05
    }
  }
  attr {
    key: "exponential_avg_factor"
    value {
      f: 1.0
    }
  }
  attr {
    key: "is_training"
    value {
      b: false
    }
  }
}
node {
  name: "resnet_v1_101/conv1/Relu"
  op: "Relu"
  input: "resnet_v1_101/conv1/BatchNorm/FusedBatchNormV3"
  attr {
    key: "T"
    value {
      type: DT_FLOAT
    }
  }
}
node {
  name: "resnet_v1_101/pool1/MaxPool"
  op: "MaxPool"
  input: "resnet_v1_101/conv1/Relu"
  attr {
    key: "T"
    value {
      type: DT_FLOAT
    }
  }
  attr {
    key: "data_format"
    value {
      s: "NHWC"
    }
  }
  attr {
    key: "explicit_paddings"
    value {
      list {
      }
    }
  }
  attr {
    key: "ksize"
    value {
      list {
        i: 1
        i: 3
        i: 3
        i: 1
      }
    }
  }
  attr {
    key: "padding"
    value {
      s: "SAME"
    }
  }
  attr {
    key: "strides"
    value {
      list {
        i: 1
        i: 2
        i: 2
        i: 1
      }
    }
  }
}
node {
  name: "resnet_v1_101/block1/unit_1/bottleneck_v1/shortcut/weights/Initializer/truncated_normal/shape"
  op: "Const"
  attr {
    key: "_class"
    value {
      list {
        s: "loc:@resnet_v1_101/block1/unit_1/bottleneck_v1/shortcut/weights"
      }
    }
  }
  attr {
    key: "dtype"
    value {
      type: DT_INT32
    }
  }
  attr {
    key: "value"
    value {
      tensor {
        dtype: DT_INT32
        tensor_shape {
          dim {
            size: 4
          }
        }
        tensor_content: "\001\000\000\000\001\000\000\000@\000\000\000\000\001\000\000"
      }
    }
  }
}
node {
  name: "resnet_v1_101/block1/unit_1/bottleneck_v1/shortcut/weights/Initializer/truncated_normal/mean"
  op: "Const"
  attr {
    key: "_class"
    value {
      list {
        s: "loc:@resnet_v1_101/block1/unit_1/bottleneck_v1/shortcut/weights"
      }
    }
  }
  attr {
    key: "dtype"
    value {
      type: DT_FLOAT
    }
  }
  attr {
    key: "value"
    value {
      tensor {
        dtype: DT_FLOAT
        tensor_shape {
        }
        float_val: 0.0
      }
    }
  }
}
node {
  name: "resnet_v1_101/block1/unit_1/bottleneck_v1/shortcut/weights/Initializer/truncated_normal/stddev"
  op: "Const"
  attr {
    key: "_class"
    value {
      list {
        s: "loc:@resnet_v1_101/block1/unit_1/bottleneck_v1/shortcut/weights"
      }
    }
  }
  attr {
    key: "dtype"
    value {
      type: DT_FLOAT
    }
  }
  attr {
    key: "value"
    value {
      tensor {
        dtype: DT_FLOAT
        tensor_shape {
        }
        float_val: 0.20155644416809082
      }
    }
  }
}
node {
  name: "resnet_v1_101/block1/unit_1/bottleneck_v1/shortcut/weights/Initializer/truncated_normal/TruncatedNormal"
  op: "TruncatedNormal"
  input: "resnet_v1_101/block1/unit_1/bottleneck_v1/shortcut/weights/Initializer/truncated_normal/shape"
  attr {
    key: "T"
    value {
      type: DT_INT32
    }
  }
  attr {
    key: "_class"
    value {
      list {
        s: "loc:@resnet_v1_101/block1/unit_1/bottleneck_v1/shortcut/weights"
      }
    }
  }
  attr {
    key: "dtype"
    value {
      type: DT_FLOAT
    }
  }
  attr {
    key: "seed"
    value {
      i: 0
    }
  }
  attr {
    key: "seed2"
    value {
      i: 0
    }
  }
}
node {
  name: "resnet_v1_101/block1/unit_1/bottleneck_v1/shortcut/weights/Initializer/truncated_normal/mul"
  op: "Mul"
  input: "resnet_v1_101/block1/unit_1/bottleneck_v1/shortcut/weights/Initializer/truncated_normal/TruncatedNormal"
  input: "resnet_v1_101/block1/unit_1/bottleneck_v1/shortcut/weights/Initializer/truncated_normal/stddev"
  attr {
    key: "T"
    value {
      type: DT_FLOAT
    }
  }
  attr {
    key: "_class"
    value {
      list {
        s: "loc:@resnet_v1_101/block1/unit_1/bottleneck_v1/shortcut/weights"
      }
    }
  }
}
node {
  name: "resnet_v1_101/block1/unit_1/bottleneck_v1/shortcut/weights/Initializer/truncated_normal"
  op: "AddV2"
  input: "resnet_v1_101/block1/unit_1/bottleneck_v1/shortcut/weights/Initializer/truncated_normal/mul"
  input: "resnet_v1_101/block1/unit_1/bottleneck_v1/shortcut/weights/Initializer/truncated_normal/mean"
  attr {
    key: "T"
    value {
      type: DT_FLOAT
    }
  }
  attr {
    key: "_class"
    value {
      list {
        s: "loc:@resnet_v1_101/block1/unit_1/bottleneck_v1/shortcut/weights"
      }
    }
  }
}
node {
  name: "resnet_v1_101/block1/unit_1/bottleneck_v1/shortcut/weights"
  op: "VarHandleOp"
  attr {
    key: "_class"
    value {
      list {
        s: "loc:@resnet_v1_101/block1/unit_1/bottleneck_v1/shortcut/weights"
      }
    }
  }
  attr {
    key: "allowed_devices"
    value {
      list {
      }
    }
  }
  attr {
    key: "container"
    value {
      s: ""
    }
  }
  attr {
    key: "dtype"
    value {
      type: DT_FLOAT
    }
  }
  attr {
    key: "shape"
    value {
      shape {
        dim {
          size: 1
        }
        dim {
          size: 1
        }
        dim {
          size: 64
        }
        dim {
          size: 256
        }
      }
    }
  }
  attr {
    key: "shared_name"
    value {
      s: "resnet_v1_101/block1/unit_1/bottleneck_v1/shortcut/weights"
    }
  }
}
node {
  name: "resnet_v1_101/block1/unit_1/bottleneck_v1/shortcut/weights/IsInitialized/VarIsInitializedOp"
  op: "VarIsInitializedOp"
  input: "resnet_v1_101/block1/unit_1/bottleneck_v1/shortcut/weights"
}
node {
  name: "resnet_v1_101/block1/unit_1/bottleneck_v1/shortcut/weights/Assign"
  op: "AssignVariableOp"
  input: "resnet_v1_101/block1/unit_1/bottleneck_v1/shortcut/weights"
  input: "resnet_v1_101/block1/unit_1/bottleneck_v1/shortcut/weights/Initializer/truncated_normal"
  attr {
    key: "dtype"
    value {
      type: DT_FLOAT
    }
  }
}
node {
  name: "resnet_v1_101/block1/unit_1/bottleneck_v1/shortcut/weights/Read/ReadVariableOp"
  op: "ReadVariableOp"
  input: "resnet_v1_101/block1/unit_1/bottleneck_v1/shortcut/weights"
  attr {
    key: "dtype"
    value {
      type: DT_FLOAT
    }
  }
}
node {
  name: "resnet_v1_101/block1/unit_1/bottleneck_v1/shortcut/kernel/Regularizer/l2_regularizer/scale"
  op: "Const"
  attr {
    key: "dtype"
    value {
      type: DT_FLOAT
    }
  }
  attr {
    key: "value"
    value {
      tensor {
        dtype: DT_FLOAT
        tensor_shape {
        }
        float_val: 9.999999747378752e-05
      }
    }
  }
}
node {
  name: "resnet_v1_101/block1/unit_1/bottleneck_v1/shortcut/kernel/Regularizer/l2_regularizer/L2Loss/ReadVariableOp"
  op: "ReadVariableOp"
  input: "resnet_v1_101/block1/unit_1/bottleneck_v1/shortcut/weights"
  attr {
    key: "dtype"
    value {
      type: DT_FLOAT
    }
  }
}
node {
  name: "resnet_v1_101/block1/unit_1/bottleneck_v1/shortcut/kernel/Regularizer/l2_regularizer/L2Loss"
  op: "L2Loss"
  input: "resnet_v1_101/block1/unit_1/bottleneck_v1/shortcut/kernel/Regularizer/l2_regularizer/L2Loss/ReadVariableOp"
  attr {
    key: "T"
    value {
      type: DT_FLOAT
    }
  }
}
node {
  name: "resnet_v1_101/block1/unit_1/bottleneck_v1/shortcut/kernel/Regularizer/l2_regularizer"
  op: "Mul"
  input: "resnet_v1_101/block1/unit_1/bottleneck_v1/shortcut/kernel/Regularizer/l2_regularizer/scale"
  input: "resnet_v1_101/block1/unit_1/bottleneck_v1/shortcut/kernel/Regularizer/l2_regularizer/L2Loss"
  attr {
    key: "T"
    value {
      type: DT_FLOAT
    }
  }
}
node {
  name: "resnet_v1_101/block1/unit_1/bottleneck_v1/shortcut/Conv2D/ReadVariableOp"
  op: "ReadVariableOp"
  input: "resnet_v1_101/block1/unit_1/bottleneck_v1/shortcut/weights"
  attr {
    key: "dtype"
    value {
      type: DT_FLOAT
    }
  }
}
node {
  name: "resnet_v1_101/block1/unit_1/bottleneck_v1/shortcut/Conv2D"
  op: "Conv2D"
  input: "resnet_v1_101/pool1/MaxPool"
  input: "resnet_v1_101/block1/unit_1/bottleneck_v1/shortcut/Conv2D/ReadVariableOp"
  attr {
    key: "T"
    value {
      type: DT_FLOAT
    }
  }
  attr {
    key: "data_format"
    value {
      s: "NHWC"
    }
  }
  attr {
    key: "dilations"
    value {
      list {
        i: 1
        i: 1
        i: 1
        i: 1
      }
    }
  }
  attr {
    key: "explicit_paddings"
    value {
      list {
      }
    }
  }
  attr {
    key: "padding"
    value {
      s: "SAME"
    }
  }
  attr {
    key: "strides"
    value {
      list {
        i: 1
        i: 1
        i: 1
        i: 1
      }
    }
  }
  attr {
    key: "use_cudnn_on_gpu"
    value {
      b: true
    }
  }
}
node {
  name: "resnet_v1_101/block1/unit_1/bottleneck_v1/shortcut/BatchNorm/gamma/Initializer/ones"
  op: "Const"
  attr {
    key: "_class"
    value {
      list {
        s: "loc:@resnet_v1_101/block1/unit_1/bottleneck_v1/shortcut/BatchNorm/gamma"
      }
    }
  }
  attr {
    key: "dtype"
    value {
      type: DT_FLOAT
    }
  }
  attr {
    key: "value"
    value {
      tensor {
        dtype: DT_FLOAT
        tensor_shape {
          dim {
            size: 256
          }
        }
        float_val: 1.0
      }
    }
  }
}
node {
  name: "resnet_v1_101/block1/unit_1/bottleneck_v1/shortcut/BatchNorm/gamma"
  op: "VarHandleOp"
  attr {
    key: "_class"
    value {
      list {
        s: "loc:@resnet_v1_101/block1/unit_1/bottleneck_v1/shortcut/BatchNorm/gamma"
      }
    }
  }
  attr {
    key: "allowed_devices"
    value {
      list {
      }
    }
  }
  attr {
    key: "container"
    value {
      s: ""
    }
  }
  attr {
    key: "dtype"
    value {
      type: DT_FLOAT
    }
  }
  attr {
    key: "shape"
    value {
      shape {
        dim {
          size: 256
        }
      }
    }
  }
  attr {
    key: "shared_name"
    value {
      s: "resnet_v1_101/block1/unit_1/bottleneck_v1/shortcut/BatchNorm/gamma"
    }
  }
}
node {
  name: "resnet_v1_101/block1/unit_1/bottleneck_v1/shortcut/BatchNorm/gamma/IsInitialized/VarIsInitializedOp"
  op: "VarIsInitializedOp"
  input: "resnet_v1_101/block1/unit_1/bottleneck_v1/shortcut/BatchNorm/gamma"
}
node {
  name: "resnet_v1_101/block1/unit_1/bottleneck_v1/shortcut/BatchNorm/gamma/Assign"
  op: "AssignVariableOp"
  input: "resnet_v1_101/block1/unit_1/bottleneck_v1/shortcut/BatchNorm/gamma"
  input: "resnet_v1_101/block1/unit_1/bottleneck_v1/shortcut/BatchNorm/gamma/Initializer/ones"
  attr {
    key: "dtype"
    value {
      type: DT_FLOAT
    }
  }
}
node {
  name: "resnet_v1_101/block1/unit_1/bottleneck_v1/shortcut/BatchNorm/gamma/Read/ReadVariableOp"
  op: "ReadVariableOp"
  input: "resnet_v1_101/block1/unit_1/bottleneck_v1/shortcut/BatchNorm/gamma"
  attr {
    key: "dtype"
    value {
      type: DT_FLOAT
    }
  }
}
node {
  name: "resnet_v1_101/block1/unit_1/bottleneck_v1/shortcut/BatchNorm/beta/Initializer/zeros"
  op: "Const"
  attr {
    key: "_class"
    value {
      list {
        s: "loc:@resnet_v1_101/block1/unit_1/bottleneck_v1/shortcut/BatchNorm/beta"
      }
    }
  }
  attr {
    key: "dtype"
    value {
      type: DT_FLOAT
    }
  }
  attr {
    key: "value"
    value {
      tensor {
        dtype: DT_FLOAT
        tensor_shape {
          dim {
            size: 256
          }
        }
        float_val: 0.0
      }
    }
  }
}
node {
  name: "resnet_v1_101/block1/unit_1/bottleneck_v1/shortcut/BatchNorm/beta"
  op: "VarHandleOp"
  attr {
    key: "_class"
    value {
      list {
        s: "loc:@resnet_v1_101/block1/unit_1/bottleneck_v1/shortcut/BatchNorm/beta"
      }
    }
  }
  attr {
    key: "allowed_devices"
    value {
      list {
      }
    }
  }
  attr {
    key: "container"
    value {
      s: ""
    }
  }
  attr {
    key: "dtype"
    value {
      type: DT_FLOAT
    }
  }
  attr {
    key: "shape"
    value {
      shape {
        dim {
          size: 256
        }
      }
    }
  }
  attr {
    key: "shared_name"
    value {
      s: "resnet_v1_101/block1/unit_1/bottleneck_v1/shortcut/BatchNorm/beta"
    }
  }
}
node {
  name: "resnet_v1_101/block1/unit_1/bottleneck_v1/shortcut/BatchNorm/beta/IsInitialized/VarIsInitializedOp"
  op: "VarIsInitializedOp"
  input: "resnet_v1_101/block1/unit_1/bottleneck_v1/shortcut/BatchNorm/beta"
}
node {
  name: "resnet_v1_101/block1/unit_1/bottleneck_v1/shortcut/BatchNorm/beta/Assign"
  op: "AssignVariableOp"
  input: "resnet_v1_101/block1/unit_1/bottleneck_v1/shortcut/BatchNorm/beta"
  input: "resnet_v1_101/block1/unit_1/bottleneck_v1/shortcut/BatchNorm/beta/Initializer/zeros"
  attr {
    key: "dtype"
    value {
      type: DT_FLOAT
    }
  }
}
node {
  name: "resnet_v1_101/block1/unit_1/bottleneck_v1/shortcut/BatchNorm/beta/Read/ReadVariableOp"
  op: "ReadVariableOp"
  input: "resnet_v1_101/block1/unit_1/bottleneck_v1/shortcut/BatchNorm/beta"
  attr {
    key: "dtype"
    value {
      type: DT_FLOAT
    }
  }
}
node {
  name: "resnet_v1_101/block1/unit_1/bottleneck_v1/shortcut/BatchNorm/moving_mean/Initializer/zeros"
  op: "Const"
  attr {
    key: "_class"
    value {
      list {
        s: "loc:@resnet_v1_101/block1/unit_1/bottleneck_v1/shortcut/BatchNorm/moving_mean"
      }
    }
  }
  attr {
    key: "dtype"
    value {
      type: DT_FLOAT
    }
  }
  attr {
    key: "value"
    value {
      tensor {
        dtype: DT_FLOAT
        tensor_shape {
          dim {
            size: 256
          }
        }
        float_val: 0.0
      }
    }
  }
}
node {
  name: "resnet_v1_101/block1/unit_1/bottleneck_v1/shortcut/BatchNorm/moving_mean"
  op: "VarHandleOp"
  attr {
    key: "_class"
    value {
      list {
        s: "loc:@resnet_v1_101/block1/unit_1/bottleneck_v1/shortcut/BatchNorm/moving_mean"
      }
    }
  }
  attr {
    key: "allowed_devices"
    value {
      list {
      }
    }
  }
  attr {
    key: "container"
    value {
      s: ""
    }
  }
  attr {
    key: "dtype"
    value {
      type: DT_FLOAT
    }
  }
  attr {
    key: "shape"
    value {
      shape {
        dim {
          size: 256
        }
      }
    }
  }
  attr {
    key: "shared_name"
    value {
      s: "resnet_v1_101/block1/unit_1/bottleneck_v1/shortcut/BatchNorm/moving_mean"
    }
  }
}
node {
  name: "resnet_v1_101/block1/unit_1/bottleneck_v1/shortcut/BatchNorm/moving_mean/IsInitialized/VarIsInitializedOp"
  op: "VarIsInitializedOp"
  input: "resnet_v1_101/block1/unit_1/bottleneck_v1/shortcut/BatchNorm/moving_mean"
}
node {
  name: "resnet_v1_101/block1/unit_1/bottleneck_v1/shortcut/BatchNorm/moving_mean/Assign"
  op: "AssignVariableOp"
  input: "resnet_v1_101/block1/unit_1/bottleneck_v1/shortcut/BatchNorm/moving_mean"
  input: "resnet_v1_101/block1/unit_1/bottleneck_v1/shortcut/BatchNorm/moving_mean/Initializer/zeros"
  attr {
    key: "dtype"
    value {
      type: DT_FLOAT
    }
  }
}
node {
  name: "resnet_v1_101/block1/unit_1/bottleneck_v1/shortcut/BatchNorm/moving_mean/Read/ReadVariableOp"
  op: "ReadVariableOp"
  input: "resnet_v1_101/block1/unit_1/bottleneck_v1/shortcut/BatchNorm/moving_mean"
  attr {
    key: "dtype"
    value {
      type: DT_FLOAT
    }
  }
}
node {
  name: "resnet_v1_101/block1/unit_1/bottleneck_v1/shortcut/BatchNorm/moving_variance/Initializer/ones"
  op: "Const"
  attr {
    key: "_class"
    value {
      list {
        s: "loc:@resnet_v1_101/block1/unit_1/bottleneck_v1/shortcut/BatchNorm/moving_variance"
      }
    }
  }
  attr {
    key: "dtype"
    value {
      type: DT_FLOAT
    }
  }
  attr {
    key: "value"
    value {
      tensor {
        dtype: DT_FLOAT
        tensor_shape {
          dim {
            size: 256
          }
        }
        float_val: 1.0
      }
    }
  }
}
node {
  name: "resnet_v1_101/block1/unit_1/bottleneck_v1/shortcut/BatchNorm/moving_variance"
  op: "VarHandleOp"
  attr {
    key: "_class"
    value {
      list {
        s: "loc:@resnet_v1_101/block1/unit_1/bottleneck_v1/shortcut/BatchNorm/moving_variance"
      }
    }
  }
  attr {
    key: "allowed_devices"
    value {
      list {
      }
    }
  }
  attr {
    key: "container"
    value {
      s: ""
    }
  }
  attr {
    key: "dtype"
    value {
      type: DT_FLOAT
    }
  }
  attr {
    key: "shape"
    value {
      shape {
        dim {
          size: 256
        }
      }
    }
  }
  attr {
    key: "shared_name"
    value {
      s: "resnet_v1_101/block1/unit_1/bottleneck_v1/shortcut/BatchNorm/moving_variance"
    }
  }
}
node {
  name: "resnet_v1_101/block1/unit_1/bottleneck_v1/shortcut/BatchNorm/moving_variance/IsInitialized/VarIsInitializedOp"
  op: "VarIsInitializedOp"
  input: "resnet_v1_101/block1/unit_1/bottleneck_v1/shortcut/BatchNorm/moving_variance"
}
node {
  name: "resnet_v1_101/block1/unit_1/bottleneck_v1/shortcut/BatchNorm/moving_variance/Assign"
  op: "AssignVariableOp"
  input: "resnet_v1_101/block1/unit_1/bottleneck_v1/shortcut/BatchNorm/moving_variance"
  input: "resnet_v1_101/block1/unit_1/bottleneck_v1/shortcut/BatchNorm/moving_variance/Initializer/ones"
  attr {
    key: "dtype"
    value {
      type: DT_FLOAT
    }
  }
}
node {
  name: "resnet_v1_101/block1/unit_1/bottleneck_v1/shortcut/BatchNorm/moving_variance/Read/ReadVariableOp"
  op: "ReadVariableOp"
  input: "resnet_v1_101/block1/unit_1/bottleneck_v1/shortcut/BatchNorm/moving_variance"
  attr {
    key: "dtype"
    value {
      type: DT_FLOAT
    }
  }
}
node {
  name: "resnet_v1_101/block1/unit_1/bottleneck_v1/shortcut/BatchNorm/ReadVariableOp"
  op: "ReadVariableOp"
  input: "resnet_v1_101/block1/unit_1/bottleneck_v1/shortcut/BatchNorm/gamma"
  attr {
    key: "dtype"
    value {
      type: DT_FLOAT
    }
  }
}
node {
  name: "resnet_v1_101/block1/unit_1/bottleneck_v1/shortcut/BatchNorm/ReadVariableOp_1"
  op: "ReadVariableOp"
  input: "resnet_v1_101/block1/unit_1/bottleneck_v1/shortcut/BatchNorm/beta"
  attr {
    key: "dtype"
    value {
      type: DT_FLOAT
    }
  }
}
node {
  name: "resnet_v1_101/block1/unit_1/bottleneck_v1/shortcut/BatchNorm/FusedBatchNormV3/ReadVariableOp"
  op: "ReadVariableOp"
  input: "resnet_v1_101/block1/unit_1/bottleneck_v1/shortcut/BatchNorm/moving_mean"
  attr {
    key: "dtype"
    value {
      type: DT_FLOAT
    }
  }
}
node {
  name: "resnet_v1_101/block1/unit_1/bottleneck_v1/shortcut/BatchNorm/FusedBatchNormV3/ReadVariableOp_1"
  op: "ReadVariableOp"
  input: "resnet_v1_101/block1/unit_1/bottleneck_v1/shortcut/BatchNorm/moving_variance"
  attr {
    key: "dtype"
    value {
      type: DT_FLOAT
    }
  }
}
node {
  name: "resnet_v1_101/block1/unit_1/bottleneck_v1/shortcut/BatchNorm/FusedBatchNormV3"
  op: "FusedBatchNormV3"
  input: "resnet_v1_101/block1/unit_1/bottleneck_v1/shortcut/Conv2D"
  input: "resnet_v1_101/block1/unit_1/bottleneck_v1/shortcut/BatchNorm/ReadVariableOp"
  input: "resnet_v1_101/block1/unit_1/bottleneck_v1/shortcut/BatchNorm/ReadVariableOp_1"
  input: "resnet_v1_101/block1/unit_1/bottleneck_v1/shortcut/BatchNorm/FusedBatchNormV3/ReadVariableOp"
  input: "resnet_v1_101/block1/unit_1/bottleneck_v1/shortcut/BatchNorm/FusedBatchNormV3/ReadVariableOp_1"
  attr {
    key: "T"
    value {
      type: DT_FLOAT
    }
  }
  attr {
    key: "U"
    value {
      type: DT_FLOAT
    }
  }
  attr {
    key: "data_format"
    value {
      s: "NHWC"
    }
  }
  attr {
    key: "epsilon"
    value {
      f: 1.0009999641624745e-05
    }
  }
  attr {
    key: "exponential_avg_factor"
    value {
      f: 1.0
    }
  }
  attr {
    key: "is_training"
    value {
      b: false
    }
  }
}
node {
  name: "resnet_v1_101/block1/unit_1/bottleneck_v1/conv1/weights/Initializer/truncated_normal/shape"
  op: "Const"
  attr {
    key: "_class"
    value {
      list {
        s: "loc:@resnet_v1_101/block1/unit_1/bottleneck_v1/conv1/weights"
      }
    }
  }
  attr {
    key: "dtype"
    value {
      type: DT_INT32
    }
  }
  attr {
    key: "value"
    value {
      tensor {
        dtype: DT_INT32
        tensor_shape {
          dim {
            size: 4
          }
        }
        tensor_content: "\001\000\000\000\001\000\000\000@\000\000\000@\000\000\000"
      }
    }
  }
}
node {
  name: "resnet_v1_101/block1/unit_1/bottleneck_v1/conv1/weights/Initializer/truncated_normal/mean"
  op: "Const"
  attr {
    key: "_class"
    value {
      list {
        s: "loc:@resnet_v1_101/block1/unit_1/bottleneck_v1/conv1/weights"
      }
    }
  }
  attr {
    key: "dtype"
    value {
      type: DT_FLOAT
    }
  }
  attr {
    key: "value"
    value {
      tensor {
        dtype: DT_FLOAT
        tensor_shape {
        }
        float_val: 0.0
      }
    }
  }
}
node {
  name: "resnet_v1_101/block1/unit_1/bottleneck_v1/conv1/weights/Initializer/truncated_normal/stddev"
  op: "Const"
  attr {
    key: "_class"
    value {
      list {
        s: "loc:@resnet_v1_101/block1/unit_1/bottleneck_v1/conv1/weights"
      }
    }
  }
  attr {
    key: "dtype"
    value {
      type: DT_FLOAT
    }
  }
  attr {
    key: "value"
    value {
      tensor {
        dtype: DT_FLOAT
        tensor_shape {
        }
        float_val: 0.20155644416809082
      }
    }
  }
}
node {
  name: "resnet_v1_101/block1/unit_1/bottleneck_v1/conv1/weights/Initializer/truncated_normal/TruncatedNormal"
  op: "TruncatedNormal"
  input: "resnet_v1_101/block1/unit_1/bottleneck_v1/conv1/weights/Initializer/truncated_normal/shape"
  attr {
    key: "T"
    value {
      type: DT_INT32
    }
  }
  attr {
    key: "_class"
    value {
      list {
        s: "loc:@resnet_v1_101/block1/unit_1/bottleneck_v1/conv1/weights"
      }
    }
  }
  attr {
    key: "dtype"
    value {
      type: DT_FLOAT
    }
  }
  attr {
    key: "seed"
    value {
      i: 0
    }
  }
  attr {
    key: "seed2"
    value {
      i: 0
    }
  }
}
node {
  name: "resnet_v1_101/block1/unit_1/bottleneck_v1/conv1/weights/Initializer/truncated_normal/mul"
  op: "Mul"
  input: "resnet_v1_101/block1/unit_1/bottleneck_v1/conv1/weights/Initializer/truncated_normal/TruncatedNormal"
  input: "resnet_v1_101/block1/unit_1/bottleneck_v1/conv1/weights/Initializer/truncated_normal/stddev"
  attr {
    key: "T"
    value {
      type: DT_FLOAT
    }
  }
  attr {
    key: "_class"
    value {
      list {
        s: "loc:@resnet_v1_101/block1/unit_1/bottleneck_v1/conv1/weights"
      }
    }
  }
}
node {
  name: "resnet_v1_101/block1/unit_1/bottleneck_v1/conv1/weights/Initializer/truncated_normal"
  op: "AddV2"
  input: "resnet_v1_101/block1/unit_1/bottleneck_v1/conv1/weights/Initializer/truncated_normal/mul"
  input: "resnet_v1_101/block1/unit_1/bottleneck_v1/conv1/weights/Initializer/truncated_normal/mean"
  attr {
    key: "T"
    value {
      type: DT_FLOAT
    }
  }
  attr {
    key: "_class"
    value {
      list {
        s: "loc:@resnet_v1_101/block1/unit_1/bottleneck_v1/conv1/weights"
      }
    }
  }
}
node {
  name: "resnet_v1_101/block1/unit_1/bottleneck_v1/conv1/weights"
  op: "VarHandleOp"
  attr {
    key: "_class"
    value {
      list {
        s: "loc:@resnet_v1_101/block1/unit_1/bottleneck_v1/conv1/weights"
      }
    }
  }
  attr {
    key: "allowed_devices"
    value {
      list {
      }
    }
  }
  attr {
    key: "container"
    value {
      s: ""
    }
  }
  attr {
    key: "dtype"
    value {
      type: DT_FLOAT
    }
  }
  attr {
    key: "shape"
    value {
      shape {
        dim {
          size: 1
        }
        dim {
          size: 1
        }
        dim {
          size: 64
        }
        dim {
          size: 64
        }
      }
    }
  }
  attr {
    key: "shared_name"
    value {
      s: "resnet_v1_101/block1/unit_1/bottleneck_v1/conv1/weights"
    }
  }
}
node {
  name: "resnet_v1_101/block1/unit_1/bottleneck_v1/conv1/weights/IsInitialized/VarIsInitializedOp"
  op: "VarIsInitializedOp"
  input: "resnet_v1_101/block1/unit_1/bottleneck_v1/conv1/weights"
}
node {
  name: "resnet_v1_101/block1/unit_1/bottleneck_v1/conv1/weights/Assign"
  op: "AssignVariableOp"
  input: "resnet_v1_101/block1/unit_1/bottleneck_v1/conv1/weights"
  input: "resnet_v1_101/block1/unit_1/bottleneck_v1/conv1/weights/Initializer/truncated_normal"
  attr {
    key: "dtype"
    value {
      type: DT_FLOAT
    }
  }
}
node {
  name: "resnet_v1_101/block1/unit_1/bottleneck_v1/conv1/weights/Read/ReadVariableOp"
  op: "ReadVariableOp"
  input: "resnet_v1_101/block1/unit_1/bottleneck_v1/conv1/weights"
  attr {
    key: "dtype"
    value {
      type: DT_FLOAT
    }
  }
}
node {
  name: "resnet_v1_101/block1/unit_1/bottleneck_v1/conv1/kernel/Regularizer/l2_regularizer/scale"
  op: "Const"
  attr {
    key: "dtype"
    value {
      type: DT_FLOAT
    }
  }
  attr {
    key: "value"
    value {
      tensor {
        dtype: DT_FLOAT
        tensor_shape {
        }
        float_val: 9.999999747378752e-05
      }
    }
  }
}
node {
  name: "resnet_v1_101/block1/unit_1/bottleneck_v1/conv1/kernel/Regularizer/l2_regularizer/L2Loss/ReadVariableOp"
  op: "ReadVariableOp"
  input: "resnet_v1_101/block1/unit_1/bottleneck_v1/conv1/weights"
  attr {
    key: "dtype"
    value {
      type: DT_FLOAT
    }
  }
}
node {
  name: "resnet_v1_101/block1/unit_1/bottleneck_v1/conv1/kernel/Regularizer/l2_regularizer/L2Loss"
  op: "L2Loss"
  input: "resnet_v1_101/block1/unit_1/bottleneck_v1/conv1/kernel/Regularizer/l2_regularizer/L2Loss/ReadVariableOp"
  attr {
    key: "T"
    value {
      type: DT_FLOAT
    }
  }
}
node {
  name: "resnet_v1_101/block1/unit_1/bottleneck_v1/conv1/kernel/Regularizer/l2_regularizer"
  op: "Mul"
  input: "resnet_v1_101/block1/unit_1/bottleneck_v1/conv1/kernel/Regularizer/l2_regularizer/scale"
  input: "resnet_v1_101/block1/unit_1/bottleneck_v1/conv1/kernel/Regularizer/l2_regularizer/L2Loss"
  attr {
    key: "T"
    value {
      type: DT_FLOAT
    }
  }
}
node {
  name: "resnet_v1_101/block1/unit_1/bottleneck_v1/conv1/Conv2D/ReadVariableOp"
  op: "ReadVariableOp"
  input: "resnet_v1_101/block1/unit_1/bottleneck_v1/conv1/weights"
  attr {
    key: "dtype"
    value {
      type: DT_FLOAT
    }
  }
}
node {
  name: "resnet_v1_101/block1/unit_1/bottleneck_v1/conv1/Conv2D"
  op: "Conv2D"
  input: "resnet_v1_101/pool1/MaxPool"
  input: "resnet_v1_101/block1/unit_1/bottleneck_v1/conv1/Conv2D/ReadVariableOp"
  attr {
    key: "T"
    value {
      type: DT_FLOAT
    }
  }
  attr {
    key: "data_format"
    value {
      s: "NHWC"
    }
  }
  attr {
    key: "dilations"
    value {
      list {
        i: 1
        i: 1
        i: 1
        i: 1
      }
    }
  }
  attr {
    key: "explicit_paddings"
    value {
      list {
      }
    }
  }
  attr {
    key: "padding"
    value {
      s: "SAME"
    }
  }
  attr {
    key: "strides"
    value {
      list {
        i: 1
        i: 1
        i: 1
        i: 1
      }
    }
  }
  attr {
    key: "use_cudnn_on_gpu"
    value {
      b: true
    }
  }
}
node {
  name: "resnet_v1_101/block1/unit_1/bottleneck_v1/conv1/BatchNorm/gamma/Initializer/ones"
  op: "Const"
  attr {
    key: "_class"
    value {
      list {
        s: "loc:@resnet_v1_101/block1/unit_1/bottleneck_v1/conv1/BatchNorm/gamma"
      }
    }
  }
  attr {
    key: "dtype"
    value {
      type: DT_FLOAT
    }
  }
  attr {
    key: "value"
    value {
      tensor {
        dtype: DT_FLOAT
        tensor_shape {
          dim {
            size: 64
          }
        }
        float_val: 1.0
      }
    }
  }
}
node {
  name: "resnet_v1_101/block1/unit_1/bottleneck_v1/conv1/BatchNorm/gamma"
  op: "VarHandleOp"
  attr {
    key: "_class"
    value {
      list {
        s: "loc:@resnet_v1_101/block1/unit_1/bottleneck_v1/conv1/BatchNorm/gamma"
      }
    }
  }
  attr {
    key: "allowed_devices"
    value {
      list {
      }
    }
  }
  attr {
    key: "container"
    value {
      s: ""
    }
  }
  attr {
    key: "dtype"
    value {
      type: DT_FLOAT
    }
  }
  attr {
    key: "shape"
    value {
      shape {
        dim {
          size: 64
        }
      }
    }
  }
  attr {
    key: "shared_name"
    value {
      s: "resnet_v1_101/block1/unit_1/bottleneck_v1/conv1/BatchNorm/gamma"
    }
  }
}
node {
  name: "resnet_v1_101/block1/unit_1/bottleneck_v1/conv1/BatchNorm/gamma/IsInitialized/VarIsInitializedOp"
  op: "VarIsInitializedOp"
  input: "resnet_v1_101/block1/unit_1/bottleneck_v1/conv1/BatchNorm/gamma"
}
node {
  name: "resnet_v1_101/block1/unit_1/bottleneck_v1/conv1/BatchNorm/gamma/Assign"
  op: "AssignVariableOp"
  input: "resnet_v1_101/block1/unit_1/bottleneck_v1/conv1/BatchNorm/gamma"
  input: "resnet_v1_101/block1/unit_1/bottleneck_v1/conv1/BatchNorm/gamma/Initializer/ones"
  attr {
    key: "dtype"
    value {
      type: DT_FLOAT
    }
  }
}
node {
  name: "resnet_v1_101/block1/unit_1/bottleneck_v1/conv1/BatchNorm/gamma/Read/ReadVariableOp"
  op: "ReadVariableOp"
  input: "resnet_v1_101/block1/unit_1/bottleneck_v1/conv1/BatchNorm/gamma"
  attr {
    key: "dtype"
    value {
      type: DT_FLOAT
    }
  }
}
node {
  name: "resnet_v1_101/block1/unit_1/bottleneck_v1/conv1/BatchNorm/beta/Initializer/zeros"
  op: "Const"
  attr {
    key: "_class"
    value {
      list {
        s: "loc:@resnet_v1_101/block1/unit_1/bottleneck_v1/conv1/BatchNorm/beta"
      }
    }
  }
  attr {
    key: "dtype"
    value {
      type: DT_FLOAT
    }
  }
  attr {
    key: "value"
    value {
      tensor {
        dtype: DT_FLOAT
        tensor_shape {
          dim {
            size: 64
          }
        }
        float_val: 0.0
      }
    }
  }
}
node {
  name: "resnet_v1_101/block1/unit_1/bottleneck_v1/conv1/BatchNorm/beta"
  op: "VarHandleOp"
  attr {
    key: "_class"
    value {
      list {
        s: "loc:@resnet_v1_101/block1/unit_1/bottleneck_v1/conv1/BatchNorm/beta"
      }
    }
  }
  attr {
    key: "allowed_devices"
    value {
      list {
      }
    }
  }
  attr {
    key: "container"
    value {
      s: ""
    }
  }
  attr {
    key: "dtype"
    value {
      type: DT_FLOAT
    }
  }
  attr {
    key: "shape"
    value {
      shape {
        dim {
          size: 64
        }
      }
    }
  }
  attr {
    key: "shared_name"
    value {
      s: "resnet_v1_101/block1/unit_1/bottleneck_v1/conv1/BatchNorm/beta"
    }
  }
}
node {
  name: "resnet_v1_101/block1/unit_1/bottleneck_v1/conv1/BatchNorm/beta/IsInitialized/VarIsInitializedOp"
  op: "VarIsInitializedOp"
  input: "resnet_v1_101/block1/unit_1/bottleneck_v1/conv1/BatchNorm/beta"
}
node {
  name: "resnet_v1_101/block1/unit_1/bottleneck_v1/conv1/BatchNorm/beta/Assign"
  op: "AssignVariableOp"
  input: "resnet_v1_101/block1/unit_1/bottleneck_v1/conv1/BatchNorm/beta"
  input: "resnet_v1_101/block1/unit_1/bottleneck_v1/conv1/BatchNorm/beta/Initializer/zeros"
  attr {
    key: "dtype"
    value {
      type: DT_FLOAT
    }
  }
}
node {
  name: "resnet_v1_101/block1/unit_1/bottleneck_v1/conv1/BatchNorm/beta/Read/ReadVariableOp"
  op: "ReadVariableOp"
  input: "resnet_v1_101/block1/unit_1/bottleneck_v1/conv1/BatchNorm/beta"
  attr {
    key: "dtype"
    value {
      type: DT_FLOAT
    }
  }
}
node {
  name: "resnet_v1_101/block1/unit_1/bottleneck_v1/conv1/BatchNorm/moving_mean/Initializer/zeros"
  op: "Const"
  attr {
    key: "_class"
    value {
      list {
        s: "loc:@resnet_v1_101/block1/unit_1/bottleneck_v1/conv1/BatchNorm/moving_mean"
      }
    }
  }
  attr {
    key: "dtype"
    value {
      type: DT_FLOAT
    }
  }
  attr {
    key: "value"
    value {
      tensor {
        dtype: DT_FLOAT
        tensor_shape {
          dim {
            size: 64
          }
        }
        float_val: 0.0
      }
    }
  }
}
node {
  name: "resnet_v1_101/block1/unit_1/bottleneck_v1/conv1/BatchNorm/moving_mean"
  op: "VarHandleOp"
  attr {
    key: "_class"
    value {
      list {
        s: "loc:@resnet_v1_101/block1/unit_1/bottleneck_v1/conv1/BatchNorm/moving_mean"
      }
    }
  }
  attr {
    key: "allowed_devices"
    value {
      list {
      }
    }
  }
  attr {
    key: "container"
    value {
      s: ""
    }
  }
  attr {
    key: "dtype"
    value {
      type: DT_FLOAT
    }
  }
  attr {
    key: "shape"
    value {
      shape {
        dim {
          size: 64
        }
      }
    }
  }
  attr {
    key: "shared_name"
    value {
      s: "resnet_v1_101/block1/unit_1/bottleneck_v1/conv1/BatchNorm/moving_mean"
    }
  }
}
node {
  name: "resnet_v1_101/block1/unit_1/bottleneck_v1/conv1/BatchNorm/moving_mean/IsInitialized/VarIsInitializedOp"
  op: "VarIsInitializedOp"
  input: "resnet_v1_101/block1/unit_1/bottleneck_v1/conv1/BatchNorm/moving_mean"
}
node {
  name: "resnet_v1_101/block1/unit_1/bottleneck_v1/conv1/BatchNorm/moving_mean/Assign"
  op: "AssignVariableOp"
  input: "resnet_v1_101/block1/unit_1/bottleneck_v1/conv1/BatchNorm/moving_mean"
  input: "resnet_v1_101/block1/unit_1/bottleneck_v1/conv1/BatchNorm/moving_mean/Initializer/zeros"
  attr {
    key: "dtype"
    value {
      type: DT_FLOAT
    }
  }
}
node {
  name: "resnet_v1_101/block1/unit_1/bottleneck_v1/conv1/BatchNorm/moving_mean/Read/ReadVariableOp"
  op: "ReadVariableOp"
  input: "resnet_v1_101/block1/unit_1/bottleneck_v1/conv1/BatchNorm/moving_mean"
  attr {
    key: "dtype"
    value {
      type: DT_FLOAT
    }
  }
}
node {
  name: "resnet_v1_101/block1/unit_1/bottleneck_v1/conv1/BatchNorm/moving_variance/Initializer/ones"
  op: "Const"
  attr {
    key: "_class"
    value {
      list {
        s: "loc:@resnet_v1_101/block1/unit_1/bottleneck_v1/conv1/BatchNorm/moving_variance"
      }
    }
  }
  attr {
    key: "dtype"
    value {
      type: DT_FLOAT
    }
  }
  attr {
    key: "value"
    value {
      tensor {
        dtype: DT_FLOAT
        tensor_shape {
          dim {
            size: 64
          }
        }
        float_val: 1.0
      }
    }
  }
}
node {
  name: "resnet_v1_101/block1/unit_1/bottleneck_v1/conv1/BatchNorm/moving_variance"
  op: "VarHandleOp"
  attr {
    key: "_class"
    value {
      list {
        s: "loc:@resnet_v1_101/block1/unit_1/bottleneck_v1/conv1/BatchNorm/moving_variance"
      }
    }
  }
  attr {
    key: "allowed_devices"
    value {
      list {
      }
    }
  }
  attr {
    key: "container"
    value {
      s: ""
    }
  }
  attr {
    key: "dtype"
    value {
      type: DT_FLOAT
    }
  }
  attr {
    key: "shape"
    value {
      shape {
        dim {
          size: 64
        }
      }
    }
  }
  attr {
    key: "shared_name"
    value {
      s: "resnet_v1_101/block1/unit_1/bottleneck_v1/conv1/BatchNorm/moving_variance"
    }
  }
}
node {
  name: "resnet_v1_101/block1/unit_1/bottleneck_v1/conv1/BatchNorm/moving_variance/IsInitialized/VarIsInitializedOp"
  op: "VarIsInitializedOp"
  input: "resnet_v1_101/block1/unit_1/bottleneck_v1/conv1/BatchNorm/moving_variance"
}
node {
  name: "resnet_v1_101/block1/unit_1/bottleneck_v1/conv1/BatchNorm/moving_variance/Assign"
  op: "AssignVariableOp"
  input: "resnet_v1_101/block1/unit_1/bottleneck_v1/conv1/BatchNorm/moving_variance"
  input: "resnet_v1_101/block1/unit_1/bottleneck_v1/conv1/BatchNorm/moving_variance/Initializer/ones"
  attr {
    key: "dtype"
    value {
      type: DT_FLOAT
    }
  }
}
node {
  name: "resnet_v1_101/block1/unit_1/bottleneck_v1/conv1/BatchNorm/moving_variance/Read/ReadVariableOp"
  op: "ReadVariableOp"
  input: "resnet_v1_101/block1/unit_1/bottleneck_v1/conv1/BatchNorm/moving_variance"
  attr {
    key: "dtype"
    value {
      type: DT_FLOAT
    }
  }
}
node {
  name: "resnet_v1_101/block1/unit_1/bottleneck_v1/conv1/BatchNorm/ReadVariableOp"
  op: "ReadVariableOp"
  input: "resnet_v1_101/block1/unit_1/bottleneck_v1/conv1/BatchNorm/gamma"
  attr {
    key: "dtype"
    value {
      type: DT_FLOAT
    }
  }
}
node {
  name: "resnet_v1_101/block1/unit_1/bottleneck_v1/conv1/BatchNorm/ReadVariableOp_1"
  op: "ReadVariableOp"
  input: "resnet_v1_101/block1/unit_1/bottleneck_v1/conv1/BatchNorm/beta"
  attr {
    key: "dtype"
    value {
      type: DT_FLOAT
    }
  }
}
node {
  name: "resnet_v1_101/block1/unit_1/bottleneck_v1/conv1/BatchNorm/FusedBatchNormV3/ReadVariableOp"
  op: "ReadVariableOp"
  input: "resnet_v1_101/block1/unit_1/bottleneck_v1/conv1/BatchNorm/moving_mean"
  attr {
    key: "dtype"
    value {
      type: DT_FLOAT
    }
  }
}
node {
  name: "resnet_v1_101/block1/unit_1/bottleneck_v1/conv1/BatchNorm/FusedBatchNormV3/ReadVariableOp_1"
  op: "ReadVariableOp"
  input: "resnet_v1_101/block1/unit_1/bottleneck_v1/conv1/BatchNorm/moving_variance"
  attr {
    key: "dtype"
    value {
      type: DT_FLOAT
    }
  }
}
node {
  name: "resnet_v1_101/block1/unit_1/bottleneck_v1/conv1/BatchNorm/FusedBatchNormV3"
  op: "FusedBatchNormV3"
  input: "resnet_v1_101/block1/unit_1/bottleneck_v1/conv1/Conv2D"
  input: "resnet_v1_101/block1/unit_1/bottleneck_v1/conv1/BatchNorm/ReadVariableOp"
  input: "resnet_v1_101/block1/unit_1/bottleneck_v1/conv1/BatchNorm/ReadVariableOp_1"
  input: "resnet_v1_101/block1/unit_1/bottleneck_v1/conv1/BatchNorm/FusedBatchNormV3/ReadVariableOp"
  input: "resnet_v1_101/block1/unit_1/bottleneck_v1/conv1/BatchNorm/FusedBatchNormV3/ReadVariableOp_1"
  attr {
    key: "T"
    value {
      type: DT_FLOAT
    }
  }
  attr {
    key: "U"
    value {
      type: DT_FLOAT
    }
  }
  attr {
    key: "data_format"
    value {
      s: "NHWC"
    }
  }
  attr {
    key: "epsilon"
    value {
      f: 1.0009999641624745e-05
    }
  }
  attr {
    key: "exponential_avg_factor"
    value {
      f: 1.0
    }
  }
  attr {
    key: "is_training"
    value {
      b: false
    }
  }
}
node {
  name: "resnet_v1_101/block1/unit_1/bottleneck_v1/conv1/Relu"
  op: "Relu"
  input: "resnet_v1_101/block1/unit_1/bottleneck_v1/conv1/BatchNorm/FusedBatchNormV3"
  attr {
    key: "T"
    value {
      type: DT_FLOAT
    }
  }
}
node {
  name: "resnet_v1_101/block1/unit_1/bottleneck_v1/conv2/weights/Initializer/truncated_normal/shape"
  op: "Const"
  attr {
    key: "_class"
    value {
      list {
        s: "loc:@resnet_v1_101/block1/unit_1/bottleneck_v1/conv2/weights"
      }
    }
  }
  attr {
    key: "dtype"
    value {
      type: DT_INT32
    }
  }
  attr {
    key: "value"
    value {
      tensor {
        dtype: DT_INT32
        tensor_shape {
          dim {
            size: 4
          }
        }
        tensor_content: "\003\000\000\000\003\000\000\000@\000\000\000@\000\000\000"
      }
    }
  }
}
node {
  name: "resnet_v1_101/block1/unit_1/bottleneck_v1/conv2/weights/Initializer/truncated_normal/mean"
  op: "Const"
  attr {
    key: "_class"
    value {
      list {
        s: "loc:@resnet_v1_101/block1/unit_1/bottleneck_v1/conv2/weights"
      }
    }
  }
  attr {
    key: "dtype"
    value {
      type: DT_FLOAT
    }
  }
  attr {
    key: "value"
    value {
      tensor {
        dtype: DT_FLOAT
        tensor_shape {
        }
        float_val: 0.0
      }
    }
  }
}
node {
  name: "resnet_v1_101/block1/unit_1/bottleneck_v1/conv2/weights/Initializer/truncated_normal/stddev"
  op: "Const"
  attr {
    key: "_class"
    value {
      list {
        s: "loc:@resnet_v1_101/block1/unit_1/bottleneck_v1/conv2/weights"
      }
    }
  }
  attr {
    key: "dtype"
    value {
      type: DT_FLOAT
    }
  }
  attr {
    key: "value"
    value {
      tensor {
        dtype: DT_FLOAT
        tensor_shape {
        }
        float_val: 0.06718548387289047
      }
    }
  }
}
node {
  name: "resnet_v1_101/block1/unit_1/bottleneck_v1/conv2/weights/Initializer/truncated_normal/TruncatedNormal"
  op: "TruncatedNormal"
  input: "resnet_v1_101/block1/unit_1/bottleneck_v1/conv2/weights/Initializer/truncated_normal/shape"
  attr {
    key: "T"
    value {
      type: DT_INT32
    }
  }
  attr {
    key: "_class"
    value {
      list {
        s: "loc:@resnet_v1_101/block1/unit_1/bottleneck_v1/conv2/weights"
      }
    }
  }
  attr {
    key: "dtype"
    value {
      type: DT_FLOAT
    }
  }
  attr {
    key: "seed"
    value {
      i: 0
    }
  }
  attr {
    key: "seed2"
    value {
      i: 0
    }
  }
}
node {
  name: "resnet_v1_101/block1/unit_1/bottleneck_v1/conv2/weights/Initializer/truncated_normal/mul"
  op: "Mul"
  input: "resnet_v1_101/block1/unit_1/bottleneck_v1/conv2/weights/Initializer/truncated_normal/TruncatedNormal"
  input: "resnet_v1_101/block1/unit_1/bottleneck_v1/conv2/weights/Initializer/truncated_normal/stddev"
  attr {
    key: "T"
    value {
      type: DT_FLOAT
    }
  }
  attr {
    key: "_class"
    value {
      list {
        s: "loc:@resnet_v1_101/block1/unit_1/bottleneck_v1/conv2/weights"
      }
    }
  }
}
node {
  name: "resnet_v1_101/block1/unit_1/bottleneck_v1/conv2/weights/Initializer/truncated_normal"
  op: "AddV2"
  input: "resnet_v1_101/block1/unit_1/bottleneck_v1/conv2/weights/Initializer/truncated_normal/mul"
  input: "resnet_v1_101/block1/unit_1/bottleneck_v1/conv2/weights/Initializer/truncated_normal/mean"
  attr {
    key: "T"
    value {
      type: DT_FLOAT
    }
  }
  attr {
    key: "_class"
    value {
      list {
        s: "loc:@resnet_v1_101/block1/unit_1/bottleneck_v1/conv2/weights"
      }
    }
  }
}
node {
  name: "resnet_v1_101/block1/unit_1/bottleneck_v1/conv2/weights"
  op: "VarHandleOp"
  attr {
    key: "_class"
    value {
      list {
        s: "loc:@resnet_v1_101/block1/unit_1/bottleneck_v1/conv2/weights"
      }
    }
  }
  attr {
    key: "allowed_devices"
    value {
      list {
      }
    }
  }
  attr {
    key: "container"
    value {
      s: ""
    }
  }
  attr {
    key: "dtype"
    value {
      type: DT_FLOAT
    }
  }
  attr {
    key: "shape"
    value {
      shape {
        dim {
          size: 3
        }
        dim {
          size: 3
        }
        dim {
          size: 64
        }
        dim {
          size: 64
        }
      }
    }
  }
  attr {
    key: "shared_name"
    value {
      s: "resnet_v1_101/block1/unit_1/bottleneck_v1/conv2/weights"
    }
  }
}
node {
  name: "resnet_v1_101/block1/unit_1/bottleneck_v1/conv2/weights/IsInitialized/VarIsInitializedOp"
  op: "VarIsInitializedOp"
  input: "resnet_v1_101/block1/unit_1/bottleneck_v1/conv2/weights"
}
node {
  name: "resnet_v1_101/block1/unit_1/bottleneck_v1/conv2/weights/Assign"
  op: "AssignVariableOp"
  input: "resnet_v1_101/block1/unit_1/bottleneck_v1/conv2/weights"
  input: "resnet_v1_101/block1/unit_1/bottleneck_v1/conv2/weights/Initializer/truncated_normal"
  attr {
    key: "dtype"
    value {
      type: DT_FLOAT
    }
  }
}
node {
  name: "resnet_v1_101/block1/unit_1/bottleneck_v1/conv2/weights/Read/ReadVariableOp"
  op: "ReadVariableOp"
  input: "resnet_v1_101/block1/unit_1/bottleneck_v1/conv2/weights"
  attr {
    key: "dtype"
    value {
      type: DT_FLOAT
    }
  }
}
node {
  name: "resnet_v1_101/block1/unit_1/bottleneck_v1/conv2/kernel/Regularizer/l2_regularizer/scale"
  op: "Const"
  attr {
    key: "dtype"
    value {
      type: DT_FLOAT
    }
  }
  attr {
    key: "value"
    value {
      tensor {
        dtype: DT_FLOAT
        tensor_shape {
        }
        float_val: 9.999999747378752e-05
      }
    }
  }
}
node {
  name: "resnet_v1_101/block1/unit_1/bottleneck_v1/conv2/kernel/Regularizer/l2_regularizer/L2Loss/ReadVariableOp"
  op: "ReadVariableOp"
  input: "resnet_v1_101/block1/unit_1/bottleneck_v1/conv2/weights"
  attr {
    key: "dtype"
    value {
      type: DT_FLOAT
    }
  }
}
node {
  name: "resnet_v1_101/block1/unit_1/bottleneck_v1/conv2/kernel/Regularizer/l2_regularizer/L2Loss"
  op: "L2Loss"
  input: "resnet_v1_101/block1/unit_1/bottleneck_v1/conv2/kernel/Regularizer/l2_regularizer/L2Loss/ReadVariableOp"
  attr {
    key: "T"
    value {
      type: DT_FLOAT
    }
  }
}
node {
  name: "resnet_v1_101/block1/unit_1/bottleneck_v1/conv2/kernel/Regularizer/l2_regularizer"
  op: "Mul"
  input: "resnet_v1_101/block1/unit_1/bottleneck_v1/conv2/kernel/Regularizer/l2_regularizer/scale"
  input: "resnet_v1_101/block1/unit_1/bottleneck_v1/conv2/kernel/Regularizer/l2_regularizer/L2Loss"
  attr {
    key: "T"
    value {
      type: DT_FLOAT
    }
  }
}
node {
  name: "resnet_v1_101/block1/unit_1/bottleneck_v1/conv2/Conv2D/ReadVariableOp"
  op: "ReadVariableOp"
  input: "resnet_v1_101/block1/unit_1/bottleneck_v1/conv2/weights"
  attr {
    key: "dtype"
    value {
      type: DT_FLOAT
    }
  }
}
node {
  name: "resnet_v1_101/block1/unit_1/bottleneck_v1/conv2/Conv2D"
  op: "Conv2D"
  input: "resnet_v1_101/block1/unit_1/bottleneck_v1/conv1/Relu"
  input: "resnet_v1_101/block1/unit_1/bottleneck_v1/conv2/Conv2D/ReadVariableOp"
  attr {
    key: "T"
    value {
      type: DT_FLOAT
    }
  }
  attr {
    key: "data_format"
    value {
      s: "NHWC"
    }
  }
  attr {
    key: "dilations"
    value {
      list {
        i: 1
        i: 1
        i: 1
        i: 1
      }
    }
  }
  attr {
    key: "explicit_paddings"
    value {
      list {
      }
    }
  }
  attr {
    key: "padding"
    value {
      s: "SAME"
    }
  }
  attr {
    key: "strides"
    value {
      list {
        i: 1
        i: 1
        i: 1
        i: 1
      }
    }
  }
  attr {
    key: "use_cudnn_on_gpu"
    value {
      b: true
    }
  }
}
node {
  name: "resnet_v1_101/block1/unit_1/bottleneck_v1/conv2/BatchNorm/gamma/Initializer/ones"
  op: "Const"
  attr {
    key: "_class"
    value {
      list {
        s: "loc:@resnet_v1_101/block1/unit_1/bottleneck_v1/conv2/BatchNorm/gamma"
      }
    }
  }
  attr {
    key: "dtype"
    value {
      type: DT_FLOAT
    }
  }
  attr {
    key: "value"
    value {
      tensor {
        dtype: DT_FLOAT
        tensor_shape {
          dim {
            size: 64
          }
        }
        float_val: 1.0
      }
    }
  }
}
node {
  name: "resnet_v1_101/block1/unit_1/bottleneck_v1/conv2/BatchNorm/gamma"
  op: "VarHandleOp"
  attr {
    key: "_class"
    value {
      list {
        s: "loc:@resnet_v1_101/block1/unit_1/bottleneck_v1/conv2/BatchNorm/gamma"
      }
    }
  }
  attr {
    key: "allowed_devices"
    value {
      list {
      }
    }
  }
  attr {
    key: "container"
    value {
      s: ""
    }
  }
  attr {
    key: "dtype"
    value {
      type: DT_FLOAT
    }
  }
  attr {
    key: "shape"
    value {
      shape {
        dim {
          size: 64
        }
      }
    }
  }
  attr {
    key: "shared_name"
    value {
      s: "resnet_v1_101/block1/unit_1/bottleneck_v1/conv2/BatchNorm/gamma"
    }
  }
}
node {
  name: "resnet_v1_101/block1/unit_1/bottleneck_v1/conv2/BatchNorm/gamma/IsInitialized/VarIsInitializedOp"
  op: "VarIsInitializedOp"
  input: "resnet_v1_101/block1/unit_1/bottleneck_v1/conv2/BatchNorm/gamma"
}
node {
  name: "resnet_v1_101/block1/unit_1/bottleneck_v1/conv2/BatchNorm/gamma/Assign"
  op: "AssignVariableOp"
  input: "resnet_v1_101/block1/unit_1/bottleneck_v1/conv2/BatchNorm/gamma"
  input: "resnet_v1_101/block1/unit_1/bottleneck_v1/conv2/BatchNorm/gamma/Initializer/ones"
  attr {
    key: "dtype"
    value {
      type: DT_FLOAT
    }
  }
}
node {
  name: "resnet_v1_101/block1/unit_1/bottleneck_v1/conv2/BatchNorm/gamma/Read/ReadVariableOp"
  op: "ReadVariableOp"
  input: "resnet_v1_101/block1/unit_1/bottleneck_v1/conv2/BatchNorm/gamma"
  attr {
    key: "dtype"
    value {
      type: DT_FLOAT
    }
  }
}
node {
  name: "resnet_v1_101/block1/unit_1/bottleneck_v1/conv2/BatchNorm/beta/Initializer/zeros"
  op: "Const"
  attr {
    key: "_class"
    value {
      list {
        s: "loc:@resnet_v1_101/block1/unit_1/bottleneck_v1/conv2/BatchNorm/beta"
      }
    }
  }
  attr {
    key: "dtype"
    value {
      type: DT_FLOAT
    }
  }
  attr {
    key: "value"
    value {
      tensor {
        dtype: DT_FLOAT
        tensor_shape {
          dim {
            size: 64
          }
        }
        float_val: 0.0
      }
    }
  }
}
node {
  name: "resnet_v1_101/block1/unit_1/bottleneck_v1/conv2/BatchNorm/beta"
  op: "VarHandleOp"
  attr {
    key: "_class"
    value {
      list {
        s: "loc:@resnet_v1_101/block1/unit_1/bottleneck_v1/conv2/BatchNorm/beta"
      }
    }
  }
  attr {
    key: "allowed_devices"
    value {
      list {
      }
    }
  }
  attr {
    key: "container"
    value {
      s: ""
    }
  }
  attr {
    key: "dtype"
    value {
      type: DT_FLOAT
    }
  }
  attr {
    key: "shape"
    value {
      shape {
        dim {
          size: 64
        }
      }
    }
  }
  attr {
    key: "shared_name"
    value {
      s: "resnet_v1_101/block1/unit_1/bottleneck_v1/conv2/BatchNorm/beta"
    }
  }
}
node {
  name: "resnet_v1_101/block1/unit_1/bottleneck_v1/conv2/BatchNorm/beta/IsInitialized/VarIsInitializedOp"
  op: "VarIsInitializedOp"
  input: "resnet_v1_101/block1/unit_1/bottleneck_v1/conv2/BatchNorm/beta"
}
node {
  name: "resnet_v1_101/block1/unit_1/bottleneck_v1/conv2/BatchNorm/beta/Assign"
  op: "AssignVariableOp"
  input: "resnet_v1_101/block1/unit_1/bottleneck_v1/conv2/BatchNorm/beta"
  input: "resnet_v1_101/block1/unit_1/bottleneck_v1/conv2/BatchNorm/beta/Initializer/zeros"
  attr {
    key: "dtype"
    value {
      type: DT_FLOAT
    }
  }
}
node {
  name: "resnet_v1_101/block1/unit_1/bottleneck_v1/conv2/BatchNorm/beta/Read/ReadVariableOp"
  op: "ReadVariableOp"
  input: "resnet_v1_101/block1/unit_1/bottleneck_v1/conv2/BatchNorm/beta"
  attr {
    key: "dtype"
    value {
      type: DT_FLOAT
    }
  }
}
node {
  name: "resnet_v1_101/block1/unit_1/bottleneck_v1/conv2/BatchNorm/moving_mean/Initializer/zeros"
  op: "Const"
  attr {
    key: "_class"
    value {
      list {
        s: "loc:@resnet_v1_101/block1/unit_1/bottleneck_v1/conv2/BatchNorm/moving_mean"
      }
    }
  }
  attr {
    key: "dtype"
    value {
      type: DT_FLOAT
    }
  }
  attr {
    key: "value"
    value {
      tensor {
        dtype: DT_FLOAT
        tensor_shape {
          dim {
            size: 64
          }
        }
        float_val: 0.0
      }
    }
  }
}
node {
  name: "resnet_v1_101/block1/unit_1/bottleneck_v1/conv2/BatchNorm/moving_mean"
  op: "VarHandleOp"
  attr {
    key: "_class"
    value {
      list {
        s: "loc:@resnet_v1_101/block1/unit_1/bottleneck_v1/conv2/BatchNorm/moving_mean"
      }
    }
  }
  attr {
    key: "allowed_devices"
    value {
      list {
      }
    }
  }
  attr {
    key: "container"
    value {
      s: ""
    }
  }
  attr {
    key: "dtype"
    value {
      type: DT_FLOAT
    }
  }
  attr {
    key: "shape"
    value {
      shape {
        dim {
          size: 64
        }
      }
    }
  }
  attr {
    key: "shared_name"
    value {
      s: "resnet_v1_101/block1/unit_1/bottleneck_v1/conv2/BatchNorm/moving_mean"
    }
  }
}
node {
  name: "resnet_v1_101/block1/unit_1/bottleneck_v1/conv2/BatchNorm/moving_mean/IsInitialized/VarIsInitializedOp"
  op: "VarIsInitializedOp"
  input: "resnet_v1_101/block1/unit_1/bottleneck_v1/conv2/BatchNorm/moving_mean"
}
node {
  name: "resnet_v1_101/block1/unit_1/bottleneck_v1/conv2/BatchNorm/moving_mean/Assign"
  op: "AssignVariableOp"
  input: "resnet_v1_101/block1/unit_1/bottleneck_v1/conv2/BatchNorm/moving_mean"
  input: "resnet_v1_101/block1/unit_1/bottleneck_v1/conv2/BatchNorm/moving_mean/Initializer/zeros"
  attr {
    key: "dtype"
    value {
      type: DT_FLOAT
    }
  }
}
node {
  name: "resnet_v1_101/block1/unit_1/bottleneck_v1/conv2/BatchNorm/moving_mean/Read/ReadVariableOp"
  op: "ReadVariableOp"
  input: "resnet_v1_101/block1/unit_1/bottleneck_v1/conv2/BatchNorm/moving_mean"
  attr {
    key: "dtype"
    value {
      type: DT_FLOAT
    }
  }
}
node {
  name: "resnet_v1_101/block1/unit_1/bottleneck_v1/conv2/BatchNorm/moving_variance/Initializer/ones"
  op: "Const"
  attr {
    key: "_class"
    value {
      list {
        s: "loc:@resnet_v1_101/block1/unit_1/bottleneck_v1/conv2/BatchNorm/moving_variance"
      }
    }
  }
  attr {
    key: "dtype"
    value {
      type: DT_FLOAT
    }
  }
  attr {
    key: "value"
    value {
      tensor {
        dtype: DT_FLOAT
        tensor_shape {
          dim {
            size: 64
          }
        }
        float_val: 1.0
      }
    }
  }
}
node {
  name: "resnet_v1_101/block1/unit_1/bottleneck_v1/conv2/BatchNorm/moving_variance"
  op: "VarHandleOp"
  attr {
    key: "_class"
    value {
      list {
        s: "loc:@resnet_v1_101/block1/unit_1/bottleneck_v1/conv2/BatchNorm/moving_variance"
      }
    }
  }
  attr {
    key: "allowed_devices"
    value {
      list {
      }
    }
  }
  attr {
    key: "container"
    value {
      s: ""
    }
  }
  attr {
    key: "dtype"
    value {
      type: DT_FLOAT
    }
  }
  attr {
    key: "shape"
    value {
      shape {
        dim {
          size: 64
        }
      }
    }
  }
  attr {
    key: "shared_name"
    value {
      s: "resnet_v1_101/block1/unit_1/bottleneck_v1/conv2/BatchNorm/moving_variance"
    }
  }
}
node {
  name: "resnet_v1_101/block1/unit_1/bottleneck_v1/conv2/BatchNorm/moving_variance/IsInitialized/VarIsInitializedOp"
  op: "VarIsInitializedOp"
  input: "resnet_v1_101/block1/unit_1/bottleneck_v1/conv2/BatchNorm/moving_variance"
}
node {
  name: "resnet_v1_101/block1/unit_1/bottleneck_v1/conv2/BatchNorm/moving_variance/Assign"
  op: "AssignVariableOp"
  input: "resnet_v1_101/block1/unit_1/bottleneck_v1/conv2/BatchNorm/moving_variance"
  input: "resnet_v1_101/block1/unit_1/bottleneck_v1/conv2/BatchNorm/moving_variance/Initializer/ones"
  attr {
    key: "dtype"
    value {
      type: DT_FLOAT
    }
  }
}
node {
  name: "resnet_v1_101/block1/unit_1/bottleneck_v1/conv2/BatchNorm/moving_variance/Read/ReadVariableOp"
  op: "ReadVariableOp"
  input: "resnet_v1_101/block1/unit_1/bottleneck_v1/conv2/BatchNorm/moving_variance"
  attr {
    key: "dtype"
    value {
      type: DT_FLOAT
    }
  }
}
node {
  name: "resnet_v1_101/block1/unit_1/bottleneck_v1/conv2/BatchNorm/ReadVariableOp"
  op: "ReadVariableOp"
  input: "resnet_v1_101/block1/unit_1/bottleneck_v1/conv2/BatchNorm/gamma"
  attr {
    key: "dtype"
    value {
      type: DT_FLOAT
    }
  }
}
node {
  name: "resnet_v1_101/block1/unit_1/bottleneck_v1/conv2/BatchNorm/ReadVariableOp_1"
  op: "ReadVariableOp"
  input: "resnet_v1_101/block1/unit_1/bottleneck_v1/conv2/BatchNorm/beta"
  attr {
    key: "dtype"
    value {
      type: DT_FLOAT
    }
  }
}
node {
  name: "resnet_v1_101/block1/unit_1/bottleneck_v1/conv2/BatchNorm/FusedBatchNormV3/ReadVariableOp"
  op: "ReadVariableOp"
  input: "resnet_v1_101/block1/unit_1/bottleneck_v1/conv2/BatchNorm/moving_mean"
  attr {
    key: "dtype"
    value {
      type: DT_FLOAT
    }
  }
}
node {
  name: "resnet_v1_101/block1/unit_1/bottleneck_v1/conv2/BatchNorm/FusedBatchNormV3/ReadVariableOp_1"
  op: "ReadVariableOp"
  input: "resnet_v1_101/block1/unit_1/bottleneck_v1/conv2/BatchNorm/moving_variance"
  attr {
    key: "dtype"
    value {
      type: DT_FLOAT
    }
  }
}
node {
  name: "resnet_v1_101/block1/unit_1/bottleneck_v1/conv2/BatchNorm/FusedBatchNormV3"
  op: "FusedBatchNormV3"
  input: "resnet_v1_101/block1/unit_1/bottleneck_v1/conv2/Conv2D"
  input: "resnet_v1_101/block1/unit_1/bottleneck_v1/conv2/BatchNorm/ReadVariableOp"
  input: "resnet_v1_101/block1/unit_1/bottleneck_v1/conv2/BatchNorm/ReadVariableOp_1"
  input: "resnet_v1_101/block1/unit_1/bottleneck_v1/conv2/BatchNorm/FusedBatchNormV3/ReadVariableOp"
  input: "resnet_v1_101/block1/unit_1/bottleneck_v1/conv2/BatchNorm/FusedBatchNormV3/ReadVariableOp_1"
  attr {
    key: "T"
    value {
      type: DT_FLOAT
    }
  }
  attr {
    key: "U"
    value {
      type: DT_FLOAT
    }
  }
  attr {
    key: "data_format"
    value {
      s: "NHWC"
    }
  }
  attr {
    key: "epsilon"
    value {
      f: 1.0009999641624745e-05
    }
  }
  attr {
    key: "exponential_avg_factor"
    value {
      f: 1.0
    }
  }
  attr {
    key: "is_training"
    value {
      b: false
    }
  }
}
node {
  name: "resnet_v1_101/block1/unit_1/bottleneck_v1/conv2/Relu"
  op: "Relu"
  input: "resnet_v1_101/block1/unit_1/bottleneck_v1/conv2/BatchNorm/FusedBatchNormV3"
  attr {
    key: "T"
    value {
      type: DT_FLOAT
    }
  }
}
node {
  name: "resnet_v1_101/block1/unit_1/bottleneck_v1/conv3/weights/Initializer/truncated_normal/shape"
  op: "Const"
  attr {
    key: "_class"
    value {
      list {
        s: "loc:@resnet_v1_101/block1/unit_1/bottleneck_v1/conv3/weights"
      }
    }
  }
  attr {
    key: "dtype"
    value {
      type: DT_INT32
    }
  }
  attr {
    key: "value"
    value {
      tensor {
        dtype: DT_INT32
        tensor_shape {
          dim {
            size: 4
          }
        }
        tensor_content: "\001\000\000\000\001\000\000\000@\000\000\000\000\001\000\000"
      }
    }
  }
}
node {
  name: "resnet_v1_101/block1/unit_1/bottleneck_v1/conv3/weights/Initializer/truncated_normal/mean"
  op: "Const"
  attr {
    key: "_class"
    value {
      list {
        s: "loc:@resnet_v1_101/block1/unit_1/bottleneck_v1/conv3/weights"
      }
    }
  }
  attr {
    key: "dtype"
    value {
      type: DT_FLOAT
    }
  }
  attr {
    key: "value"
    value {
      tensor {
        dtype: DT_FLOAT
        tensor_shape {
        }
        float_val: 0.0
      }
    }
  }
}
node {
  name: "resnet_v1_101/block1/unit_1/bottleneck_v1/conv3/weights/Initializer/truncated_normal/stddev"
  op: "Const"
  attr {
    key: "_class"
    value {
      list {
        s: "loc:@resnet_v1_101/block1/unit_1/bottleneck_v1/conv3/weights"
      }
    }
  }
  attr {
    key: "dtype"
    value {
      type: DT_FLOAT
    }
  }
  attr {
    key: "value"
    value {
      tensor {
        dtype: DT_FLOAT
        tensor_shape {
        }
        float_val: 0.20155644416809082
      }
    }
  }
}
node {
  name: "resnet_v1_101/block1/unit_1/bottleneck_v1/conv3/weights/Initializer/truncated_normal/TruncatedNormal"
  op: "TruncatedNormal"
  input: "resnet_v1_101/block1/unit_1/bottleneck_v1/conv3/weights/Initializer/truncated_normal/shape"
  attr {
    key: "T"
    value {
      type: DT_INT32
    }
  }
  attr {
    key: "_class"
    value {
      list {
        s: "loc:@resnet_v1_101/block1/unit_1/bottleneck_v1/conv3/weights"
      }
    }
  }
  attr {
    key: "dtype"
    value {
      type: DT_FLOAT
    }
  }
  attr {
    key: "seed"
    value {
      i: 0
    }
  }
  attr {
    key: "seed2"
    value {
      i: 0
    }
  }
}
node {
  name: "resnet_v1_101/block1/unit_1/bottleneck_v1/conv3/weights/Initializer/truncated_normal/mul"
  op: "Mul"
  input: "resnet_v1_101/block1/unit_1/bottleneck_v1/conv3/weights/Initializer/truncated_normal/TruncatedNormal"
  input: "resnet_v1_101/block1/unit_1/bottleneck_v1/conv3/weights/Initializer/truncated_normal/stddev"
  attr {
    key: "T"
    value {
      type: DT_FLOAT
    }
  }
  attr {
    key: "_class"
    value {
      list {
        s: "loc:@resnet_v1_101/block1/unit_1/bottleneck_v1/conv3/weights"
      }
    }
  }
}
node {
  name: "resnet_v1_101/block1/unit_1/bottleneck_v1/conv3/weights/Initializer/truncated_normal"
  op: "AddV2"
  input: "resnet_v1_101/block1/unit_1/bottleneck_v1/conv3/weights/Initializer/truncated_normal/mul"
  input: "resnet_v1_101/block1/unit_1/bottleneck_v1/conv3/weights/Initializer/truncated_normal/mean"
  attr {
    key: "T"
    value {
      type: DT_FLOAT
    }
  }
  attr {
    key: "_class"
    value {
      list {
        s: "loc:@resnet_v1_101/block1/unit_1/bottleneck_v1/conv3/weights"
      }
    }
  }
}
node {
  name: "resnet_v1_101/block1/unit_1/bottleneck_v1/conv3/weights"
  op: "VarHandleOp"
  attr {
    key: "_class"
    value {
      list {
        s: "loc:@resnet_v1_101/block1/unit_1/bottleneck_v1/conv3/weights"
      }
    }
  }
  attr {
    key: "allowed_devices"
    value {
      list {
      }
    }
  }
  attr {
    key: "container"
    value {
      s: ""
    }
  }
  attr {
    key: "dtype"
    value {
      type: DT_FLOAT
    }
  }
  attr {
    key: "shape"
    value {
      shape {
        dim {
          size: 1
        }
        dim {
          size: 1
        }
        dim {
          size: 64
        }
        dim {
          size: 256
        }
      }
    }
  }
  attr {
    key: "shared_name"
    value {
      s: "resnet_v1_101/block1/unit_1/bottleneck_v1/conv3/weights"
    }
  }
}
node {
  name: "resnet_v1_101/block1/unit_1/bottleneck_v1/conv3/weights/IsInitialized/VarIsInitializedOp"
  op: "VarIsInitializedOp"
  input: "resnet_v1_101/block1/unit_1/bottleneck_v1/conv3/weights"
}
node {
  name: "resnet_v1_101/block1/unit_1/bottleneck_v1/conv3/weights/Assign"
  op: "AssignVariableOp"
  input: "resnet_v1_101/block1/unit_1/bottleneck_v1/conv3/weights"
  input: "resnet_v1_101/block1/unit_1/bottleneck_v1/conv3/weights/Initializer/truncated_normal"
  attr {
    key: "dtype"
    value {
      type: DT_FLOAT
    }
  }
}
node {
  name: "resnet_v1_101/block1/unit_1/bottleneck_v1/conv3/weights/Read/ReadVariableOp"
  op: "ReadVariableOp"
  input: "resnet_v1_101/block1/unit_1/bottleneck_v1/conv3/weights"
  attr {
    key: "dtype"
    value {
      type: DT_FLOAT
    }
  }
}
node {
  name: "resnet_v1_101/block1/unit_1/bottleneck_v1/conv3/kernel/Regularizer/l2_regularizer/scale"
  op: "Const"
  attr {
    key: "dtype"
    value {
      type: DT_FLOAT
    }
  }
  attr {
    key: "value"
    value {
      tensor {
        dtype: DT_FLOAT
        tensor_shape {
        }
        float_val: 9.999999747378752e-05
      }
    }
  }
}
node {
  name: "resnet_v1_101/block1/unit_1/bottleneck_v1/conv3/kernel/Regularizer/l2_regularizer/L2Loss/ReadVariableOp"
  op: "ReadVariableOp"
  input: "resnet_v1_101/block1/unit_1/bottleneck_v1/conv3/weights"
  attr {
    key: "dtype"
    value {
      type: DT_FLOAT
    }
  }
}
node {
  name: "resnet_v1_101/block1/unit_1/bottleneck_v1/conv3/kernel/Regularizer/l2_regularizer/L2Loss"
  op: "L2Loss"
  input: "resnet_v1_101/block1/unit_1/bottleneck_v1/conv3/kernel/Regularizer/l2_regularizer/L2Loss/ReadVariableOp"
  attr {
    key: "T"
    value {
      type: DT_FLOAT
    }
  }
}
node {
  name: "resnet_v1_101/block1/unit_1/bottleneck_v1/conv3/kernel/Regularizer/l2_regularizer"
  op: "Mul"
  input: "resnet_v1_101/block1/unit_1/bottleneck_v1/conv3/kernel/Regularizer/l2_regularizer/scale"
  input: "resnet_v1_101/block1/unit_1/bottleneck_v1/conv3/kernel/Regularizer/l2_regularizer/L2Loss"
  attr {
    key: "T"
    value {
      type: DT_FLOAT
    }
  }
}
node {
  name: "resnet_v1_101/block1/unit_1/bottleneck_v1/conv3/Conv2D/ReadVariableOp"
  op: "ReadVariableOp"
  input: "resnet_v1_101/block1/unit_1/bottleneck_v1/conv3/weights"
  attr {
    key: "dtype"
    value {
      type: DT_FLOAT
    }
  }
}
node {
  name: "resnet_v1_101/block1/unit_1/bottleneck_v1/conv3/Conv2D"
  op: "Conv2D"
  input: "resnet_v1_101/block1/unit_1/bottleneck_v1/conv2/Relu"
  input: "resnet_v1_101/block1/unit_1/bottleneck_v1/conv3/Conv2D/ReadVariableOp"
  attr {
    key: "T"
    value {
      type: DT_FLOAT
    }
  }
  attr {
    key: "data_format"
    value {
      s: "NHWC"
    }
  }
  attr {
    key: "dilations"
    value {
      list {
        i: 1
        i: 1
        i: 1
        i: 1
      }
    }
  }
  attr {
    key: "explicit_paddings"
    value {
      list {
      }
    }
  }
  attr {
    key: "padding"
    value {
      s: "SAME"
    }
  }
  attr {
    key: "strides"
    value {
      list {
        i: 1
        i: 1
        i: 1
        i: 1
      }
    }
  }
  attr {
    key: "use_cudnn_on_gpu"
    value {
      b: true
    }
  }
}
node {
  name: "resnet_v1_101/block1/unit_1/bottleneck_v1/conv3/BatchNorm/gamma/Initializer/ones"
  op: "Const"
  attr {
    key: "_class"
    value {
      list {
        s: "loc:@resnet_v1_101/block1/unit_1/bottleneck_v1/conv3/BatchNorm/gamma"
      }
    }
  }
  attr {
    key: "dtype"
    value {
      type: DT_FLOAT
    }
  }
  attr {
    key: "value"
    value {
      tensor {
        dtype: DT_FLOAT
        tensor_shape {
          dim {
            size: 256
          }
        }
        float_val: 1.0
      }
    }
  }
}
node {
  name: "resnet_v1_101/block1/unit_1/bottleneck_v1/conv3/BatchNorm/gamma"
  op: "VarHandleOp"
  attr {
    key: "_class"
    value {
      list {
        s: "loc:@resnet_v1_101/block1/unit_1/bottleneck_v1/conv3/BatchNorm/gamma"
      }
    }
  }
  attr {
    key: "allowed_devices"
    value {
      list {
      }
    }
  }
  attr {
    key: "container"
    value {
      s: ""
    }
  }
  attr {
    key: "dtype"
    value {
      type: DT_FLOAT
    }
  }
  attr {
    key: "shape"
    value {
      shape {
        dim {
          size: 256
        }
      }
    }
  }
  attr {
    key: "shared_name"
    value {
      s: "resnet_v1_101/block1/unit_1/bottleneck_v1/conv3/BatchNorm/gamma"
    }
  }
}
node {
  name: "resnet_v1_101/block1/unit_1/bottleneck_v1/conv3/BatchNorm/gamma/IsInitialized/VarIsInitializedOp"
  op: "VarIsInitializedOp"
  input: "resnet_v1_101/block1/unit_1/bottleneck_v1/conv3/BatchNorm/gamma"
}
node {
  name: "resnet_v1_101/block1/unit_1/bottleneck_v1/conv3/BatchNorm/gamma/Assign"
  op: "AssignVariableOp"
  input: "resnet_v1_101/block1/unit_1/bottleneck_v1/conv3/BatchNorm/gamma"
  input: "resnet_v1_101/block1/unit_1/bottleneck_v1/conv3/BatchNorm/gamma/Initializer/ones"
  attr {
    key: "dtype"
    value {
      type: DT_FLOAT
    }
  }
}
node {
  name: "resnet_v1_101/block1/unit_1/bottleneck_v1/conv3/BatchNorm/gamma/Read/ReadVariableOp"
  op: "ReadVariableOp"
  input: "resnet_v1_101/block1/unit_1/bottleneck_v1/conv3/BatchNorm/gamma"
  attr {
    key: "dtype"
    value {
      type: DT_FLOAT
    }
  }
}
node {
  name: "resnet_v1_101/block1/unit_1/bottleneck_v1/conv3/BatchNorm/beta/Initializer/zeros"
  op: "Const"
  attr {
    key: "_class"
    value {
      list {
        s: "loc:@resnet_v1_101/block1/unit_1/bottleneck_v1/conv3/BatchNorm/beta"
      }
    }
  }
  attr {
    key: "dtype"
    value {
      type: DT_FLOAT
    }
  }
  attr {
    key: "value"
    value {
      tensor {
        dtype: DT_FLOAT
        tensor_shape {
          dim {
            size: 256
          }
        }
        float_val: 0.0
      }
    }
  }
}
node {
  name: "resnet_v1_101/block1/unit_1/bottleneck_v1/conv3/BatchNorm/beta"
  op: "VarHandleOp"
  attr {
    key: "_class"
    value {
      list {
        s: "loc:@resnet_v1_101/block1/unit_1/bottleneck_v1/conv3/BatchNorm/beta"
      }
    }
  }
  attr {
    key: "allowed_devices"
    value {
      list {
      }
    }
  }
  attr {
    key: "container"
    value {
      s: ""
    }
  }
  attr {
    key: "dtype"
    value {
      type: DT_FLOAT
    }
  }
  attr {
    key: "shape"
    value {
      shape {
        dim {
          size: 256
        }
      }
    }
  }
  attr {
    key: "shared_name"
    value {
      s: "resnet_v1_101/block1/unit_1/bottleneck_v1/conv3/BatchNorm/beta"
    }
  }
}
node {
  name: "resnet_v1_101/block1/unit_1/bottleneck_v1/conv3/BatchNorm/beta/IsInitialized/VarIsInitializedOp"
  op: "VarIsInitializedOp"
  input: "resnet_v1_101/block1/unit_1/bottleneck_v1/conv3/BatchNorm/beta"
}
node {
  name: "resnet_v1_101/block1/unit_1/bottleneck_v1/conv3/BatchNorm/beta/Assign"
  op: "AssignVariableOp"
  input: "resnet_v1_101/block1/unit_1/bottleneck_v1/conv3/BatchNorm/beta"
  input: "resnet_v1_101/block1/unit_1/bottleneck_v1/conv3/BatchNorm/beta/Initializer/zeros"
  attr {
    key: "dtype"
    value {
      type: DT_FLOAT
    }
  }
}
node {
  name: "resnet_v1_101/block1/unit_1/bottleneck_v1/conv3/BatchNorm/beta/Read/ReadVariableOp"
  op: "ReadVariableOp"
  input: "resnet_v1_101/block1/unit_1/bottleneck_v1/conv3/BatchNorm/beta"
  attr {
    key: "dtype"
    value {
      type: DT_FLOAT
    }
  }
}
node {
  name: "resnet_v1_101/block1/unit_1/bottleneck_v1/conv3/BatchNorm/moving_mean/Initializer/zeros"
  op: "Const"
  attr {
    key: "_class"
    value {
      list {
        s: "loc:@resnet_v1_101/block1/unit_1/bottleneck_v1/conv3/BatchNorm/moving_mean"
      }
    }
  }
  attr {
    key: "dtype"
    value {
      type: DT_FLOAT
    }
  }
  attr {
    key: "value"
    value {
      tensor {
        dtype: DT_FLOAT
        tensor_shape {
          dim {
            size: 256
          }
        }
        float_val: 0.0
      }
    }
  }
}
node {
  name: "resnet_v1_101/block1/unit_1/bottleneck_v1/conv3/BatchNorm/moving_mean"
  op: "VarHandleOp"
  attr {
    key: "_class"
    value {
      list {
        s: "loc:@resnet_v1_101/block1/unit_1/bottleneck_v1/conv3/BatchNorm/moving_mean"
      }
    }
  }
  attr {
    key: "allowed_devices"
    value {
      list {
      }
    }
  }
  attr {
    key: "container"
    value {
      s: ""
    }
  }
  attr {
    key: "dtype"
    value {
      type: DT_FLOAT
    }
  }
  attr {
    key: "shape"
    value {
      shape {
        dim {
          size: 256
        }
      }
    }
  }
  attr {
    key: "shared_name"
    value {
      s: "resnet_v1_101/block1/unit_1/bottleneck_v1/conv3/BatchNorm/moving_mean"
    }
  }
}
node {
  name: "resnet_v1_101/block1/unit_1/bottleneck_v1/conv3/BatchNorm/moving_mean/IsInitialized/VarIsInitializedOp"
  op: "VarIsInitializedOp"
  input: "resnet_v1_101/block1/unit_1/bottleneck_v1/conv3/BatchNorm/moving_mean"
}
node {
  name: "resnet_v1_101/block1/unit_1/bottleneck_v1/conv3/BatchNorm/moving_mean/Assign"
  op: "AssignVariableOp"
  input: "resnet_v1_101/block1/unit_1/bottleneck_v1/conv3/BatchNorm/moving_mean"
  input: "resnet_v1_101/block1/unit_1/bottleneck_v1/conv3/BatchNorm/moving_mean/Initializer/zeros"
  attr {
    key: "dtype"
    value {
      type: DT_FLOAT
    }
  }
}
node {
  name: "resnet_v1_101/block1/unit_1/bottleneck_v1/conv3/BatchNorm/moving_mean/Read/ReadVariableOp"
  op: "ReadVariableOp"
  input: "resnet_v1_101/block1/unit_1/bottleneck_v1/conv3/BatchNorm/moving_mean"
  attr {
    key: "dtype"
    value {
      type: DT_FLOAT
    }
  }
}
node {
  name: "resnet_v1_101/block1/unit_1/bottleneck_v1/conv3/BatchNorm/moving_variance/Initializer/ones"
  op: "Const"
  attr {
    key: "_class"
    value {
      list {
        s: "loc:@resnet_v1_101/block1/unit_1/bottleneck_v1/conv3/BatchNorm/moving_variance"
      }
    }
  }
  attr {
    key: "dtype"
    value {
      type: DT_FLOAT
    }
  }
  attr {
    key: "value"
    value {
      tensor {
        dtype: DT_FLOAT
        tensor_shape {
          dim {
            size: 256
          }
        }
        float_val: 1.0
      }
    }
  }
}
node {
  name: "resnet_v1_101/block1/unit_1/bottleneck_v1/conv3/BatchNorm/moving_variance"
  op: "VarHandleOp"
  attr {
    key: "_class"
    value {
      list {
        s: "loc:@resnet_v1_101/block1/unit_1/bottleneck_v1/conv3/BatchNorm/moving_variance"
      }
    }
  }
  attr {
    key: "allowed_devices"
    value {
      list {
      }
    }
  }
  attr {
    key: "container"
    value {
      s: ""
    }
  }
  attr {
    key: "dtype"
    value {
      type: DT_FLOAT
    }
  }
  attr {
    key: "shape"
    value {
      shape {
        dim {
          size: 256
        }
      }
    }
  }
  attr {
    key: "shared_name"
    value {
      s: "resnet_v1_101/block1/unit_1/bottleneck_v1/conv3/BatchNorm/moving_variance"
    }
  }
}
node {
  name: "resnet_v1_101/block1/unit_1/bottleneck_v1/conv3/BatchNorm/moving_variance/IsInitialized/VarIsInitializedOp"
  op: "VarIsInitializedOp"
  input: "resnet_v1_101/block1/unit_1/bottleneck_v1/conv3/BatchNorm/moving_variance"
}
node {
  name: "resnet_v1_101/block1/unit_1/bottleneck_v1/conv3/BatchNorm/moving_variance/Assign"
  op: "AssignVariableOp"
  input: "resnet_v1_101/block1/unit_1/bottleneck_v1/conv3/BatchNorm/moving_variance"
  input: "resnet_v1_101/block1/unit_1/bottleneck_v1/conv3/BatchNorm/moving_variance/Initializer/ones"
  attr {
    key: "dtype"
    value {
      type: DT_FLOAT
    }
  }
}
node {
  name: "resnet_v1_101/block1/unit_1/bottleneck_v1/conv3/BatchNorm/moving_variance/Read/ReadVariableOp"
  op: "ReadVariableOp"
  input: "resnet_v1_101/block1/unit_1/bottleneck_v1/conv3/BatchNorm/moving_variance"
  attr {
    key: "dtype"
    value {
      type: DT_FLOAT
    }
  }
}
node {
  name: "resnet_v1_101/block1/unit_1/bottleneck_v1/conv3/BatchNorm/ReadVariableOp"
  op: "ReadVariableOp"
  input: "resnet_v1_101/block1/unit_1/bottleneck_v1/conv3/BatchNorm/gamma"
  attr {
    key: "dtype"
    value {
      type: DT_FLOAT
    }
  }
}
node {
  name: "resnet_v1_101/block1/unit_1/bottleneck_v1/conv3/BatchNorm/ReadVariableOp_1"
  op: "ReadVariableOp"
  input: "resnet_v1_101/block1/unit_1/bottleneck_v1/conv3/BatchNorm/beta"
  attr {
    key: "dtype"
    value {
      type: DT_FLOAT
    }
  }
}
node {
  name: "resnet_v1_101/block1/unit_1/bottleneck_v1/conv3/BatchNorm/FusedBatchNormV3/ReadVariableOp"
  op: "ReadVariableOp"
  input: "resnet_v1_101/block1/unit_1/bottleneck_v1/conv3/BatchNorm/moving_mean"
  attr {
    key: "dtype"
    value {
      type: DT_FLOAT
    }
  }
}
node {
  name: "resnet_v1_101/block1/unit_1/bottleneck_v1/conv3/BatchNorm/FusedBatchNormV3/ReadVariableOp_1"
  op: "ReadVariableOp"
  input: "resnet_v1_101/block1/unit_1/bottleneck_v1/conv3/BatchNorm/moving_variance"
  attr {
    key: "dtype"
    value {
      type: DT_FLOAT
    }
  }
}
node {
  name: "resnet_v1_101/block1/unit_1/bottleneck_v1/conv3/BatchNorm/FusedBatchNormV3"
  op: "FusedBatchNormV3"
  input: "resnet_v1_101/block1/unit_1/bottleneck_v1/conv3/Conv2D"
  input: "resnet_v1_101/block1/unit_1/bottleneck_v1/conv3/BatchNorm/ReadVariableOp"
  input: "resnet_v1_101/block1/unit_1/bottleneck_v1/conv3/BatchNorm/ReadVariableOp_1"
  input: "resnet_v1_101/block1/unit_1/bottleneck_v1/conv3/BatchNorm/FusedBatchNormV3/ReadVariableOp"
  input: "resnet_v1_101/block1/unit_1/bottleneck_v1/conv3/BatchNorm/FusedBatchNormV3/ReadVariableOp_1"
  attr {
    key: "T"
    value {
      type: DT_FLOAT
    }
  }
  attr {
    key: "U"
    value {
      type: DT_FLOAT
    }
  }
  attr {
    key: "data_format"
    value {
      s: "NHWC"
    }
  }
  attr {
    key: "epsilon"
    value {
      f: 1.0009999641624745e-05
    }
  }
  attr {
    key: "exponential_avg_factor"
    value {
      f: 1.0
    }
  }
  attr {
    key: "is_training"
    value {
      b: false
    }
  }
}
node {
  name: "resnet_v1_101/block1/unit_1/bottleneck_v1/add"
  op: "AddV2"
  input: "resnet_v1_101/block1/unit_1/bottleneck_v1/shortcut/BatchNorm/FusedBatchNormV3"
  input: "resnet_v1_101/block1/unit_1/bottleneck_v1/conv3/BatchNorm/FusedBatchNormV3"
  attr {
    key: "T"
    value {
      type: DT_FLOAT
    }
  }
}
node {
  name: "resnet_v1_101/block1/unit_1/bottleneck_v1/Relu"
  op: "Relu"
  input: "resnet_v1_101/block1/unit_1/bottleneck_v1/add"
  attr {
    key: "T"
    value {
      type: DT_FLOAT
    }
  }
}
node {
  name: "resnet_v1_101/block1/unit_2/bottleneck_v1/conv1/weights/Initializer/truncated_normal/shape"
  op: "Const"
  attr {
    key: "_class"
    value {
      list {
        s: "loc:@resnet_v1_101/block1/unit_2/bottleneck_v1/conv1/weights"
      }
    }
  }
  attr {
    key: "dtype"
    value {
      type: DT_INT32
    }
  }
  attr {
    key: "value"
    value {
      tensor {
        dtype: DT_INT32
        tensor_shape {
          dim {
            size: 4
          }
        }
        tensor_content: "\001\000\000\000\001\000\000\000\000\001\000\000@\000\000\000"
      }
    }
  }
}
node {
  name: "resnet_v1_101/block1/unit_2/bottleneck_v1/conv1/weights/Initializer/truncated_normal/mean"
  op: "Const"
  attr {
    key: "_class"
    value {
      list {
        s: "loc:@resnet_v1_101/block1/unit_2/bottleneck_v1/conv1/weights"
      }
    }
  }
  attr {
    key: "dtype"
    value {
      type: DT_FLOAT
    }
  }
  attr {
    key: "value"
    value {
      tensor {
        dtype: DT_FLOAT
        tensor_shape {
        }
        float_val: 0.0
      }
    }
  }
}
node {
  name: "resnet_v1_101/block1/unit_2/bottleneck_v1/conv1/weights/Initializer/truncated_normal/stddev"
  op: "Const"
  attr {
    key: "_class"
    value {
      list {
        s: "loc:@resnet_v1_101/block1/unit_2/bottleneck_v1/conv1/weights"
      }
    }
  }
  attr {
    key: "dtype"
    value {
      type: DT_FLOAT
    }
  }
  attr {
    key: "value"
    value {
      tensor {
        dtype: DT_FLOAT
        tensor_shape {
        }
        float_val: 0.10077822208404541
      }
    }
  }
}
node {
  name: "resnet_v1_101/block1/unit_2/bottleneck_v1/conv1/weights/Initializer/truncated_normal/TruncatedNormal"
  op: "TruncatedNormal"
  input: "resnet_v1_101/block1/unit_2/bottleneck_v1/conv1/weights/Initializer/truncated_normal/shape"
  attr {
    key: "T"
    value {
      type: DT_INT32
    }
  }
  attr {
    key: "_class"
    value {
      list {
        s: "loc:@resnet_v1_101/block1/unit_2/bottleneck_v1/conv1/weights"
      }
    }
  }
  attr {
    key: "dtype"
    value {
      type: DT_FLOAT
    }
  }
  attr {
    key: "seed"
    value {
      i: 0
    }
  }
  attr {
    key: "seed2"
    value {
      i: 0
    }
  }
}
node {
  name: "resnet_v1_101/block1/unit_2/bottleneck_v1/conv1/weights/Initializer/truncated_normal/mul"
  op: "Mul"
  input: "resnet_v1_101/block1/unit_2/bottleneck_v1/conv1/weights/Initializer/truncated_normal/TruncatedNormal"
  input: "resnet_v1_101/block1/unit_2/bottleneck_v1/conv1/weights/Initializer/truncated_normal/stddev"
  attr {
    key: "T"
    value {
      type: DT_FLOAT
    }
  }
  attr {
    key: "_class"
    value {
      list {
        s: "loc:@resnet_v1_101/block1/unit_2/bottleneck_v1/conv1/weights"
      }
    }
  }
}
node {
  name: "resnet_v1_101/block1/unit_2/bottleneck_v1/conv1/weights/Initializer/truncated_normal"
  op: "AddV2"
  input: "resnet_v1_101/block1/unit_2/bottleneck_v1/conv1/weights/Initializer/truncated_normal/mul"
  input: "resnet_v1_101/block1/unit_2/bottleneck_v1/conv1/weights/Initializer/truncated_normal/mean"
  attr {
    key: "T"
    value {
      type: DT_FLOAT
    }
  }
  attr {
    key: "_class"
    value {
      list {
        s: "loc:@resnet_v1_101/block1/unit_2/bottleneck_v1/conv1/weights"
      }
    }
  }
}
node {
  name: "resnet_v1_101/block1/unit_2/bottleneck_v1/conv1/weights"
  op: "VarHandleOp"
  attr {
    key: "_class"
    value {
      list {
        s: "loc:@resnet_v1_101/block1/unit_2/bottleneck_v1/conv1/weights"
      }
    }
  }
  attr {
    key: "allowed_devices"
    value {
      list {
      }
    }
  }
  attr {
    key: "container"
    value {
      s: ""
    }
  }
  attr {
    key: "dtype"
    value {
      type: DT_FLOAT
    }
  }
  attr {
    key: "shape"
    value {
      shape {
        dim {
          size: 1
        }
        dim {
          size: 1
        }
        dim {
          size: 256
        }
        dim {
          size: 64
        }
      }
    }
  }
  attr {
    key: "shared_name"
    value {
      s: "resnet_v1_101/block1/unit_2/bottleneck_v1/conv1/weights"
    }
  }
}
node {
  name: "resnet_v1_101/block1/unit_2/bottleneck_v1/conv1/weights/IsInitialized/VarIsInitializedOp"
  op: "VarIsInitializedOp"
  input: "resnet_v1_101/block1/unit_2/bottleneck_v1/conv1/weights"
}
node {
  name: "resnet_v1_101/block1/unit_2/bottleneck_v1/conv1/weights/Assign"
  op: "AssignVariableOp"
  input: "resnet_v1_101/block1/unit_2/bottleneck_v1/conv1/weights"
  input: "resnet_v1_101/block1/unit_2/bottleneck_v1/conv1/weights/Initializer/truncated_normal"
  attr {
    key: "dtype"
    value {
      type: DT_FLOAT
    }
  }
}
node {
  name: "resnet_v1_101/block1/unit_2/bottleneck_v1/conv1/weights/Read/ReadVariableOp"
  op: "ReadVariableOp"
  input: "resnet_v1_101/block1/unit_2/bottleneck_v1/conv1/weights"
  attr {
    key: "dtype"
    value {
      type: DT_FLOAT
    }
  }
}
node {
  name: "resnet_v1_101/block1/unit_2/bottleneck_v1/conv1/kernel/Regularizer/l2_regularizer/scale"
  op: "Const"
  attr {
    key: "dtype"
    value {
      type: DT_FLOAT
    }
  }
  attr {
    key: "value"
    value {
      tensor {
        dtype: DT_FLOAT
        tensor_shape {
        }
        float_val: 9.999999747378752e-05
      }
    }
  }
}
node {
  name: "resnet_v1_101/block1/unit_2/bottleneck_v1/conv1/kernel/Regularizer/l2_regularizer/L2Loss/ReadVariableOp"
  op: "ReadVariableOp"
  input: "resnet_v1_101/block1/unit_2/bottleneck_v1/conv1/weights"
  attr {
    key: "dtype"
    value {
      type: DT_FLOAT
    }
  }
}
node {
  name: "resnet_v1_101/block1/unit_2/bottleneck_v1/conv1/kernel/Regularizer/l2_regularizer/L2Loss"
  op: "L2Loss"
  input: "resnet_v1_101/block1/unit_2/bottleneck_v1/conv1/kernel/Regularizer/l2_regularizer/L2Loss/ReadVariableOp"
  attr {
    key: "T"
    value {
      type: DT_FLOAT
    }
  }
}
node {
  name: "resnet_v1_101/block1/unit_2/bottleneck_v1/conv1/kernel/Regularizer/l2_regularizer"
  op: "Mul"
  input: "resnet_v1_101/block1/unit_2/bottleneck_v1/conv1/kernel/Regularizer/l2_regularizer/scale"
  input: "resnet_v1_101/block1/unit_2/bottleneck_v1/conv1/kernel/Regularizer/l2_regularizer/L2Loss"
  attr {
    key: "T"
    value {
      type: DT_FLOAT
    }
  }
}
node {
  name: "resnet_v1_101/block1/unit_2/bottleneck_v1/conv1/Conv2D/ReadVariableOp"
  op: "ReadVariableOp"
  input: "resnet_v1_101/block1/unit_2/bottleneck_v1/conv1/weights"
  attr {
    key: "dtype"
    value {
      type: DT_FLOAT
    }
  }
}
node {
  name: "resnet_v1_101/block1/unit_2/bottleneck_v1/conv1/Conv2D"
  op: "Conv2D"
  input: "resnet_v1_101/block1/unit_1/bottleneck_v1/Relu"
  input: "resnet_v1_101/block1/unit_2/bottleneck_v1/conv1/Conv2D/ReadVariableOp"
  attr {
    key: "T"
    value {
      type: DT_FLOAT
    }
  }
  attr {
    key: "data_format"
    value {
      s: "NHWC"
    }
  }
  attr {
    key: "dilations"
    value {
      list {
        i: 1
        i: 1
        i: 1
        i: 1
      }
    }
  }
  attr {
    key: "explicit_paddings"
    value {
      list {
      }
    }
  }
  attr {
    key: "padding"
    value {
      s: "SAME"
    }
  }
  attr {
    key: "strides"
    value {
      list {
        i: 1
        i: 1
        i: 1
        i: 1
      }
    }
  }
  attr {
    key: "use_cudnn_on_gpu"
    value {
      b: true
    }
  }
}
node {
  name: "resnet_v1_101/block1/unit_2/bottleneck_v1/conv1/BatchNorm/gamma/Initializer/ones"
  op: "Const"
  attr {
    key: "_class"
    value {
      list {
        s: "loc:@resnet_v1_101/block1/unit_2/bottleneck_v1/conv1/BatchNorm/gamma"
      }
    }
  }
  attr {
    key: "dtype"
    value {
      type: DT_FLOAT
    }
  }
  attr {
    key: "value"
    value {
      tensor {
        dtype: DT_FLOAT
        tensor_shape {
          dim {
            size: 64
          }
        }
        float_val: 1.0
      }
    }
  }
}
node {
  name: "resnet_v1_101/block1/unit_2/bottleneck_v1/conv1/BatchNorm/gamma"
  op: "VarHandleOp"
  attr {
    key: "_class"
    value {
      list {
        s: "loc:@resnet_v1_101/block1/unit_2/bottleneck_v1/conv1/BatchNorm/gamma"
      }
    }
  }
  attr {
    key: "allowed_devices"
    value {
      list {
      }
    }
  }
  attr {
    key: "container"
    value {
      s: ""
    }
  }
  attr {
    key: "dtype"
    value {
      type: DT_FLOAT
    }
  }
  attr {
    key: "shape"
    value {
      shape {
        dim {
          size: 64
        }
      }
    }
  }
  attr {
    key: "shared_name"
    value {
      s: "resnet_v1_101/block1/unit_2/bottleneck_v1/conv1/BatchNorm/gamma"
    }
  }
}
node {
  name: "resnet_v1_101/block1/unit_2/bottleneck_v1/conv1/BatchNorm/gamma/IsInitialized/VarIsInitializedOp"
  op: "VarIsInitializedOp"
  input: "resnet_v1_101/block1/unit_2/bottleneck_v1/conv1/BatchNorm/gamma"
}
node {
  name: "resnet_v1_101/block1/unit_2/bottleneck_v1/conv1/BatchNorm/gamma/Assign"
  op: "AssignVariableOp"
  input: "resnet_v1_101/block1/unit_2/bottleneck_v1/conv1/BatchNorm/gamma"
  input: "resnet_v1_101/block1/unit_2/bottleneck_v1/conv1/BatchNorm/gamma/Initializer/ones"
  attr {
    key: "dtype"
    value {
      type: DT_FLOAT
    }
  }
}
node {
  name: "resnet_v1_101/block1/unit_2/bottleneck_v1/conv1/BatchNorm/gamma/Read/ReadVariableOp"
  op: "ReadVariableOp"
  input: "resnet_v1_101/block1/unit_2/bottleneck_v1/conv1/BatchNorm/gamma"
  attr {
    key: "dtype"
    value {
      type: DT_FLOAT
    }
  }
}
node {
  name: "resnet_v1_101/block1/unit_2/bottleneck_v1/conv1/BatchNorm/beta/Initializer/zeros"
  op: "Const"
  attr {
    key: "_class"
    value {
      list {
        s: "loc:@resnet_v1_101/block1/unit_2/bottleneck_v1/conv1/BatchNorm/beta"
      }
    }
  }
  attr {
    key: "dtype"
    value {
      type: DT_FLOAT
    }
  }
  attr {
    key: "value"
    value {
      tensor {
        dtype: DT_FLOAT
        tensor_shape {
          dim {
            size: 64
          }
        }
        float_val: 0.0
      }
    }
  }
}
node {
  name: "resnet_v1_101/block1/unit_2/bottleneck_v1/conv1/BatchNorm/beta"
  op: "VarHandleOp"
  attr {
    key: "_class"
    value {
      list {
        s: "loc:@resnet_v1_101/block1/unit_2/bottleneck_v1/conv1/BatchNorm/beta"
      }
    }
  }
  attr {
    key: "allowed_devices"
    value {
      list {
      }
    }
  }
  attr {
    key: "container"
    value {
      s: ""
    }
  }
  attr {
    key: "dtype"
    value {
      type: DT_FLOAT
    }
  }
  attr {
    key: "shape"
    value {
      shape {
        dim {
          size: 64
        }
      }
    }
  }
  attr {
    key: "shared_name"
    value {
      s: "resnet_v1_101/block1/unit_2/bottleneck_v1/conv1/BatchNorm/beta"
    }
  }
}
node {
  name: "resnet_v1_101/block1/unit_2/bottleneck_v1/conv1/BatchNorm/beta/IsInitialized/VarIsInitializedOp"
  op: "VarIsInitializedOp"
  input: "resnet_v1_101/block1/unit_2/bottleneck_v1/conv1/BatchNorm/beta"
}
node {
  name: "resnet_v1_101/block1/unit_2/bottleneck_v1/conv1/BatchNorm/beta/Assign"
  op: "AssignVariableOp"
  input: "resnet_v1_101/block1/unit_2/bottleneck_v1/conv1/BatchNorm/beta"
  input: "resnet_v1_101/block1/unit_2/bottleneck_v1/conv1/BatchNorm/beta/Initializer/zeros"
  attr {
    key: "dtype"
    value {
      type: DT_FLOAT
    }
  }
}
node {
  name: "resnet_v1_101/block1/unit_2/bottleneck_v1/conv1/BatchNorm/beta/Read/ReadVariableOp"
  op: "ReadVariableOp"
  input: "resnet_v1_101/block1/unit_2/bottleneck_v1/conv1/BatchNorm/beta"
  attr {
    key: "dtype"
    value {
      type: DT_FLOAT
    }
  }
}
node {
  name: "resnet_v1_101/block1/unit_2/bottleneck_v1/conv1/BatchNorm/moving_mean/Initializer/zeros"
  op: "Const"
  attr {
    key: "_class"
    value {
      list {
        s: "loc:@resnet_v1_101/block1/unit_2/bottleneck_v1/conv1/BatchNorm/moving_mean"
      }
    }
  }
  attr {
    key: "dtype"
    value {
      type: DT_FLOAT
    }
  }
  attr {
    key: "value"
    value {
      tensor {
        dtype: DT_FLOAT
        tensor_shape {
          dim {
            size: 64
          }
        }
        float_val: 0.0
      }
    }
  }
}
node {
  name: "resnet_v1_101/block1/unit_2/bottleneck_v1/conv1/BatchNorm/moving_mean"
  op: "VarHandleOp"
  attr {
    key: "_class"
    value {
      list {
        s: "loc:@resnet_v1_101/block1/unit_2/bottleneck_v1/conv1/BatchNorm/moving_mean"
      }
    }
  }
  attr {
    key: "allowed_devices"
    value {
      list {
      }
    }
  }
  attr {
    key: "container"
    value {
      s: ""
    }
  }
  attr {
    key: "dtype"
    value {
      type: DT_FLOAT
    }
  }
  attr {
    key: "shape"
    value {
      shape {
        dim {
          size: 64
        }
      }
    }
  }
  attr {
    key: "shared_name"
    value {
      s: "resnet_v1_101/block1/unit_2/bottleneck_v1/conv1/BatchNorm/moving_mean"
    }
  }
}
node {
  name: "resnet_v1_101/block1/unit_2/bottleneck_v1/conv1/BatchNorm/moving_mean/IsInitialized/VarIsInitializedOp"
  op: "VarIsInitializedOp"
  input: "resnet_v1_101/block1/unit_2/bottleneck_v1/conv1/BatchNorm/moving_mean"
}
node {
  name: "resnet_v1_101/block1/unit_2/bottleneck_v1/conv1/BatchNorm/moving_mean/Assign"
  op: "AssignVariableOp"
  input: "resnet_v1_101/block1/unit_2/bottleneck_v1/conv1/BatchNorm/moving_mean"
  input: "resnet_v1_101/block1/unit_2/bottleneck_v1/conv1/BatchNorm/moving_mean/Initializer/zeros"
  attr {
    key: "dtype"
    value {
      type: DT_FLOAT
    }
  }
}
node {
  name: "resnet_v1_101/block1/unit_2/bottleneck_v1/conv1/BatchNorm/moving_mean/Read/ReadVariableOp"
  op: "ReadVariableOp"
  input: "resnet_v1_101/block1/unit_2/bottleneck_v1/conv1/BatchNorm/moving_mean"
  attr {
    key: "dtype"
    value {
      type: DT_FLOAT
    }
  }
}
node {
  name: "resnet_v1_101/block1/unit_2/bottleneck_v1/conv1/BatchNorm/moving_variance/Initializer/ones"
  op: "Const"
  attr {
    key: "_class"
    value {
      list {
        s: "loc:@resnet_v1_101/block1/unit_2/bottleneck_v1/conv1/BatchNorm/moving_variance"
      }
    }
  }
  attr {
    key: "dtype"
    value {
      type: DT_FLOAT
    }
  }
  attr {
    key: "value"
    value {
      tensor {
        dtype: DT_FLOAT
        tensor_shape {
          dim {
            size: 64
          }
        }
        float_val: 1.0
      }
    }
  }
}
node {
  name: "resnet_v1_101/block1/unit_2/bottleneck_v1/conv1/BatchNorm/moving_variance"
  op: "VarHandleOp"
  attr {
    key: "_class"
    value {
      list {
        s: "loc:@resnet_v1_101/block1/unit_2/bottleneck_v1/conv1/BatchNorm/moving_variance"
      }
    }
  }
  attr {
    key: "allowed_devices"
    value {
      list {
      }
    }
  }
  attr {
    key: "container"
    value {
      s: ""
    }
  }
  attr {
    key: "dtype"
    value {
      type: DT_FLOAT
    }
  }
  attr {
    key: "shape"
    value {
      shape {
        dim {
          size: 64
        }
      }
    }
  }
  attr {
    key: "shared_name"
    value {
      s: "resnet_v1_101/block1/unit_2/bottleneck_v1/conv1/BatchNorm/moving_variance"
    }
  }
}
node {
  name: "resnet_v1_101/block1/unit_2/bottleneck_v1/conv1/BatchNorm/moving_variance/IsInitialized/VarIsInitializedOp"
  op: "VarIsInitializedOp"
  input: "resnet_v1_101/block1/unit_2/bottleneck_v1/conv1/BatchNorm/moving_variance"
}
node {
  name: "resnet_v1_101/block1/unit_2/bottleneck_v1/conv1/BatchNorm/moving_variance/Assign"
  op: "AssignVariableOp"
  input: "resnet_v1_101/block1/unit_2/bottleneck_v1/conv1/BatchNorm/moving_variance"
  input: "resnet_v1_101/block1/unit_2/bottleneck_v1/conv1/BatchNorm/moving_variance/Initializer/ones"
  attr {
    key: "dtype"
    value {
      type: DT_FLOAT
    }
  }
}
node {
  name: "resnet_v1_101/block1/unit_2/bottleneck_v1/conv1/BatchNorm/moving_variance/Read/ReadVariableOp"
  op: "ReadVariableOp"
  input: "resnet_v1_101/block1/unit_2/bottleneck_v1/conv1/BatchNorm/moving_variance"
  attr {
    key: "dtype"
    value {
      type: DT_FLOAT
    }
  }
}
node {
  name: "resnet_v1_101/block1/unit_2/bottleneck_v1/conv1/BatchNorm/ReadVariableOp"
  op: "ReadVariableOp"
  input: "resnet_v1_101/block1/unit_2/bottleneck_v1/conv1/BatchNorm/gamma"
  attr {
    key: "dtype"
    value {
      type: DT_FLOAT
    }
  }
}
node {
  name: "resnet_v1_101/block1/unit_2/bottleneck_v1/conv1/BatchNorm/ReadVariableOp_1"
  op: "ReadVariableOp"
  input: "resnet_v1_101/block1/unit_2/bottleneck_v1/conv1/BatchNorm/beta"
  attr {
    key: "dtype"
    value {
      type: DT_FLOAT
    }
  }
}
node {
  name: "resnet_v1_101/block1/unit_2/bottleneck_v1/conv1/BatchNorm/FusedBatchNormV3/ReadVariableOp"
  op: "ReadVariableOp"
  input: "resnet_v1_101/block1/unit_2/bottleneck_v1/conv1/BatchNorm/moving_mean"
  attr {
    key: "dtype"
    value {
      type: DT_FLOAT
    }
  }
}
node {
  name: "resnet_v1_101/block1/unit_2/bottleneck_v1/conv1/BatchNorm/FusedBatchNormV3/ReadVariableOp_1"
  op: "ReadVariableOp"
  input: "resnet_v1_101/block1/unit_2/bottleneck_v1/conv1/BatchNorm/moving_variance"
  attr {
    key: "dtype"
    value {
      type: DT_FLOAT
    }
  }
}
node {
  name: "resnet_v1_101/block1/unit_2/bottleneck_v1/conv1/BatchNorm/FusedBatchNormV3"
  op: "FusedBatchNormV3"
  input: "resnet_v1_101/block1/unit_2/bottleneck_v1/conv1/Conv2D"
  input: "resnet_v1_101/block1/unit_2/bottleneck_v1/conv1/BatchNorm/ReadVariableOp"
  input: "resnet_v1_101/block1/unit_2/bottleneck_v1/conv1/BatchNorm/ReadVariableOp_1"
  input: "resnet_v1_101/block1/unit_2/bottleneck_v1/conv1/BatchNorm/FusedBatchNormV3/ReadVariableOp"
  input: "resnet_v1_101/block1/unit_2/bottleneck_v1/conv1/BatchNorm/FusedBatchNormV3/ReadVariableOp_1"
  attr {
    key: "T"
    value {
      type: DT_FLOAT
    }
  }
  attr {
    key: "U"
    value {
      type: DT_FLOAT
    }
  }
  attr {
    key: "data_format"
    value {
      s: "NHWC"
    }
  }
  attr {
    key: "epsilon"
    value {
      f: 1.0009999641624745e-05
    }
  }
  attr {
    key: "exponential_avg_factor"
    value {
      f: 1.0
    }
  }
  attr {
    key: "is_training"
    value {
      b: false
    }
  }
}
node {
  name: "resnet_v1_101/block1/unit_2/bottleneck_v1/conv1/Relu"
  op: "Relu"
  input: "resnet_v1_101/block1/unit_2/bottleneck_v1/conv1/BatchNorm/FusedBatchNormV3"
  attr {
    key: "T"
    value {
      type: DT_FLOAT
    }
  }
}
node {
  name: "resnet_v1_101/block1/unit_2/bottleneck_v1/conv2/weights/Initializer/truncated_normal/shape"
  op: "Const"
  attr {
    key: "_class"
    value {
      list {
        s: "loc:@resnet_v1_101/block1/unit_2/bottleneck_v1/conv2/weights"
      }
    }
  }
  attr {
    key: "dtype"
    value {
      type: DT_INT32
    }
  }
  attr {
    key: "value"
    value {
      tensor {
        dtype: DT_INT32
        tensor_shape {
          dim {
            size: 4
          }
        }
        tensor_content: "\003\000\000\000\003\000\000\000@\000\000\000@\000\000\000"
      }
    }
  }
}
node {
  name: "resnet_v1_101/block1/unit_2/bottleneck_v1/conv2/weights/Initializer/truncated_normal/mean"
  op: "Const"
  attr {
    key: "_class"
    value {
      list {
        s: "loc:@resnet_v1_101/block1/unit_2/bottleneck_v1/conv2/weights"
      }
    }
  }
  attr {
    key: "dtype"
    value {
      type: DT_FLOAT
    }
  }
  attr {
    key: "value"
    value {
      tensor {
        dtype: DT_FLOAT
        tensor_shape {
        }
        float_val: 0.0
      }
    }
  }
}
node {
  name: "resnet_v1_101/block1/unit_2/bottleneck_v1/conv2/weights/Initializer/truncated_normal/stddev"
  op: "Const"
  attr {
    key: "_class"
    value {
      list {
        s: "loc:@resnet_v1_101/block1/unit_2/bottleneck_v1/conv2/weights"
      }
    }
  }
  attr {
    key: "dtype"
    value {
      type: DT_FLOAT
    }
  }
  attr {
    key: "value"
    value {
      tensor {
        dtype: DT_FLOAT
        tensor_shape {
        }
        float_val: 0.06718548387289047
      }
    }
  }
}
node {
  name: "resnet_v1_101/block1/unit_2/bottleneck_v1/conv2/weights/Initializer/truncated_normal/TruncatedNormal"
  op: "TruncatedNormal"
  input: "resnet_v1_101/block1/unit_2/bottleneck_v1/conv2/weights/Initializer/truncated_normal/shape"
  attr {
    key: "T"
    value {
      type: DT_INT32
    }
  }
  attr {
    key: "_class"
    value {
      list {
        s: "loc:@resnet_v1_101/block1/unit_2/bottleneck_v1/conv2/weights"
      }
    }
  }
  attr {
    key: "dtype"
    value {
      type: DT_FLOAT
    }
  }
  attr {
    key: "seed"
    value {
      i: 0
    }
  }
  attr {
    key: "seed2"
    value {
      i: 0
    }
  }
}
node {
  name: "resnet_v1_101/block1/unit_2/bottleneck_v1/conv2/weights/Initializer/truncated_normal/mul"
  op: "Mul"
  input: "resnet_v1_101/block1/unit_2/bottleneck_v1/conv2/weights/Initializer/truncated_normal/TruncatedNormal"
  input: "resnet_v1_101/block1/unit_2/bottleneck_v1/conv2/weights/Initializer/truncated_normal/stddev"
  attr {
    key: "T"
    value {
      type: DT_FLOAT
    }
  }
  attr {
    key: "_class"
    value {
      list {
        s: "loc:@resnet_v1_101/block1/unit_2/bottleneck_v1/conv2/weights"
      }
    }
  }
}
node {
  name: "resnet_v1_101/block1/unit_2/bottleneck_v1/conv2/weights/Initializer/truncated_normal"
  op: "AddV2"
  input: "resnet_v1_101/block1/unit_2/bottleneck_v1/conv2/weights/Initializer/truncated_normal/mul"
  input: "resnet_v1_101/block1/unit_2/bottleneck_v1/conv2/weights/Initializer/truncated_normal/mean"
  attr {
    key: "T"
    value {
      type: DT_FLOAT
    }
  }
  attr {
    key: "_class"
    value {
      list {
        s: "loc:@resnet_v1_101/block1/unit_2/bottleneck_v1/conv2/weights"
      }
    }
  }
}
node {
  name: "resnet_v1_101/block1/unit_2/bottleneck_v1/conv2/weights"
  op: "VarHandleOp"
  attr {
    key: "_class"
    value {
      list {
        s: "loc:@resnet_v1_101/block1/unit_2/bottleneck_v1/conv2/weights"
      }
    }
  }
  attr {
    key: "allowed_devices"
    value {
      list {
      }
    }
  }
  attr {
    key: "container"
    value {
      s: ""
    }
  }
  attr {
    key: "dtype"
    value {
      type: DT_FLOAT
    }
  }
  attr {
    key: "shape"
    value {
      shape {
        dim {
          size: 3
        }
        dim {
          size: 3
        }
        dim {
          size: 64
        }
        dim {
          size: 64
        }
      }
    }
  }
  attr {
    key: "shared_name"
    value {
      s: "resnet_v1_101/block1/unit_2/bottleneck_v1/conv2/weights"
    }
  }
}
node {
  name: "resnet_v1_101/block1/unit_2/bottleneck_v1/conv2/weights/IsInitialized/VarIsInitializedOp"
  op: "VarIsInitializedOp"
  input: "resnet_v1_101/block1/unit_2/bottleneck_v1/conv2/weights"
}
node {
  name: "resnet_v1_101/block1/unit_2/bottleneck_v1/conv2/weights/Assign"
  op: "AssignVariableOp"
  input: "resnet_v1_101/block1/unit_2/bottleneck_v1/conv2/weights"
  input: "resnet_v1_101/block1/unit_2/bottleneck_v1/conv2/weights/Initializer/truncated_normal"
  attr {
    key: "dtype"
    value {
      type: DT_FLOAT
    }
  }
}
node {
  name: "resnet_v1_101/block1/unit_2/bottleneck_v1/conv2/weights/Read/ReadVariableOp"
  op: "ReadVariableOp"
  input: "resnet_v1_101/block1/unit_2/bottleneck_v1/conv2/weights"
  attr {
    key: "dtype"
    value {
      type: DT_FLOAT
    }
  }
}
node {
  name: "resnet_v1_101/block1/unit_2/bottleneck_v1/conv2/kernel/Regularizer/l2_regularizer/scale"
  op: "Const"
  attr {
    key: "dtype"
    value {
      type: DT_FLOAT
    }
  }
  attr {
    key: "value"
    value {
      tensor {
        dtype: DT_FLOAT
        tensor_shape {
        }
        float_val: 9.999999747378752e-05
      }
    }
  }
}
node {
  name: "resnet_v1_101/block1/unit_2/bottleneck_v1/conv2/kernel/Regularizer/l2_regularizer/L2Loss/ReadVariableOp"
  op: "ReadVariableOp"
  input: "resnet_v1_101/block1/unit_2/bottleneck_v1/conv2/weights"
  attr {
    key: "dtype"
    value {
      type: DT_FLOAT
    }
  }
}
node {
  name: "resnet_v1_101/block1/unit_2/bottleneck_v1/conv2/kernel/Regularizer/l2_regularizer/L2Loss"
  op: "L2Loss"
  input: "resnet_v1_101/block1/unit_2/bottleneck_v1/conv2/kernel/Regularizer/l2_regularizer/L2Loss/ReadVariableOp"
  attr {
    key: "T"
    value {
      type: DT_FLOAT
    }
  }
}
node {
  name: "resnet_v1_101/block1/unit_2/bottleneck_v1/conv2/kernel/Regularizer/l2_regularizer"
  op: "Mul"
  input: "resnet_v1_101/block1/unit_2/bottleneck_v1/conv2/kernel/Regularizer/l2_regularizer/scale"
  input: "resnet_v1_101/block1/unit_2/bottleneck_v1/conv2/kernel/Regularizer/l2_regularizer/L2Loss"
  attr {
    key: "T"
    value {
      type: DT_FLOAT
    }
  }
}
node {
  name: "resnet_v1_101/block1/unit_2/bottleneck_v1/conv2/Conv2D/ReadVariableOp"
  op: "ReadVariableOp"
  input: "resnet_v1_101/block1/unit_2/bottleneck_v1/conv2/weights"
  attr {
    key: "dtype"
    value {
      type: DT_FLOAT
    }
  }
}
node {
  name: "resnet_v1_101/block1/unit_2/bottleneck_v1/conv2/Conv2D"
  op: "Conv2D"
  input: "resnet_v1_101/block1/unit_2/bottleneck_v1/conv1/Relu"
  input: "resnet_v1_101/block1/unit_2/bottleneck_v1/conv2/Conv2D/ReadVariableOp"
  attr {
    key: "T"
    value {
      type: DT_FLOAT
    }
  }
  attr {
    key: "data_format"
    value {
      s: "NHWC"
    }
  }
  attr {
    key: "dilations"
    value {
      list {
        i: 1
        i: 1
        i: 1
        i: 1
      }
    }
  }
  attr {
    key: "explicit_paddings"
    value {
      list {
      }
    }
  }
  attr {
    key: "padding"
    value {
      s: "SAME"
    }
  }
  attr {
    key: "strides"
    value {
      list {
        i: 1
        i: 1
        i: 1
        i: 1
      }
    }
  }
  attr {
    key: "use_cudnn_on_gpu"
    value {
      b: true
    }
  }
}
node {
  name: "resnet_v1_101/block1/unit_2/bottleneck_v1/conv2/BatchNorm/gamma/Initializer/ones"
  op: "Const"
  attr {
    key: "_class"
    value {
      list {
        s: "loc:@resnet_v1_101/block1/unit_2/bottleneck_v1/conv2/BatchNorm/gamma"
      }
    }
  }
  attr {
    key: "dtype"
    value {
      type: DT_FLOAT
    }
  }
  attr {
    key: "value"
    value {
      tensor {
        dtype: DT_FLOAT
        tensor_shape {
          dim {
            size: 64
          }
        }
        float_val: 1.0
      }
    }
  }
}
node {
  name: "resnet_v1_101/block1/unit_2/bottleneck_v1/conv2/BatchNorm/gamma"
  op: "VarHandleOp"
  attr {
    key: "_class"
    value {
      list {
        s: "loc:@resnet_v1_101/block1/unit_2/bottleneck_v1/conv2/BatchNorm/gamma"
      }
    }
  }
  attr {
    key: "allowed_devices"
    value {
      list {
      }
    }
  }
  attr {
    key: "container"
    value {
      s: ""
    }
  }
  attr {
    key: "dtype"
    value {
      type: DT_FLOAT
    }
  }
  attr {
    key: "shape"
    value {
      shape {
        dim {
          size: 64
        }
      }
    }
  }
  attr {
    key: "shared_name"
    value {
      s: "resnet_v1_101/block1/unit_2/bottleneck_v1/conv2/BatchNorm/gamma"
    }
  }
}
node {
  name: "resnet_v1_101/block1/unit_2/bottleneck_v1/conv2/BatchNorm/gamma/IsInitialized/VarIsInitializedOp"
  op: "VarIsInitializedOp"
  input: "resnet_v1_101/block1/unit_2/bottleneck_v1/conv2/BatchNorm/gamma"
}
node {
  name: "resnet_v1_101/block1/unit_2/bottleneck_v1/conv2/BatchNorm/gamma/Assign"
  op: "AssignVariableOp"
  input: "resnet_v1_101/block1/unit_2/bottleneck_v1/conv2/BatchNorm/gamma"
  input: "resnet_v1_101/block1/unit_2/bottleneck_v1/conv2/BatchNorm/gamma/Initializer/ones"
  attr {
    key: "dtype"
    value {
      type: DT_FLOAT
    }
  }
}
node {
  name: "resnet_v1_101/block1/unit_2/bottleneck_v1/conv2/BatchNorm/gamma/Read/ReadVariableOp"
  op: "ReadVariableOp"
  input: "resnet_v1_101/block1/unit_2/bottleneck_v1/conv2/BatchNorm/gamma"
  attr {
    key: "dtype"
    value {
      type: DT_FLOAT
    }
  }
}
node {
  name: "resnet_v1_101/block1/unit_2/bottleneck_v1/conv2/BatchNorm/beta/Initializer/zeros"
  op: "Const"
  attr {
    key: "_class"
    value {
      list {
        s: "loc:@resnet_v1_101/block1/unit_2/bottleneck_v1/conv2/BatchNorm/beta"
      }
    }
  }
  attr {
    key: "dtype"
    value {
      type: DT_FLOAT
    }
  }
  attr {
    key: "value"
    value {
      tensor {
        dtype: DT_FLOAT
        tensor_shape {
          dim {
            size: 64
          }
        }
        float_val: 0.0
      }
    }
  }
}
node {
  name: "resnet_v1_101/block1/unit_2/bottleneck_v1/conv2/BatchNorm/beta"
  op: "VarHandleOp"
  attr {
    key: "_class"
    value {
      list {
        s: "loc:@resnet_v1_101/block1/unit_2/bottleneck_v1/conv2/BatchNorm/beta"
      }
    }
  }
  attr {
    key: "allowed_devices"
    value {
      list {
      }
    }
  }
  attr {
    key: "container"
    value {
      s: ""
    }
  }
  attr {
    key: "dtype"
    value {
      type: DT_FLOAT
    }
  }
  attr {
    key: "shape"
    value {
      shape {
        dim {
          size: 64
        }
      }
    }
  }
  attr {
    key: "shared_name"
    value {
      s: "resnet_v1_101/block1/unit_2/bottleneck_v1/conv2/BatchNorm/beta"
    }
  }
}
node {
  name: "resnet_v1_101/block1/unit_2/bottleneck_v1/conv2/BatchNorm/beta/IsInitialized/VarIsInitializedOp"
  op: "VarIsInitializedOp"
  input: "resnet_v1_101/block1/unit_2/bottleneck_v1/conv2/BatchNorm/beta"
}
node {
  name: "resnet_v1_101/block1/unit_2/bottleneck_v1/conv2/BatchNorm/beta/Assign"
  op: "AssignVariableOp"
  input: "resnet_v1_101/block1/unit_2/bottleneck_v1/conv2/BatchNorm/beta"
  input: "resnet_v1_101/block1/unit_2/bottleneck_v1/conv2/BatchNorm/beta/Initializer/zeros"
  attr {
    key: "dtype"
    value {
      type: DT_FLOAT
    }
  }
}
node {
  name: "resnet_v1_101/block1/unit_2/bottleneck_v1/conv2/BatchNorm/beta/Read/ReadVariableOp"
  op: "ReadVariableOp"
  input: "resnet_v1_101/block1/unit_2/bottleneck_v1/conv2/BatchNorm/beta"
  attr {
    key: "dtype"
    value {
      type: DT_FLOAT
    }
  }
}
node {
  name: "resnet_v1_101/block1/unit_2/bottleneck_v1/conv2/BatchNorm/moving_mean/Initializer/zeros"
  op: "Const"
  attr {
    key: "_class"
    value {
      list {
        s: "loc:@resnet_v1_101/block1/unit_2/bottleneck_v1/conv2/BatchNorm/moving_mean"
      }
    }
  }
  attr {
    key: "dtype"
    value {
      type: DT_FLOAT
    }
  }
  attr {
    key: "value"
    value {
      tensor {
        dtype: DT_FLOAT
        tensor_shape {
          dim {
            size: 64
          }
        }
        float_val: 0.0
      }
    }
  }
}
node {
  name: "resnet_v1_101/block1/unit_2/bottleneck_v1/conv2/BatchNorm/moving_mean"
  op: "VarHandleOp"
  attr {
    key: "_class"
    value {
      list {
        s: "loc:@resnet_v1_101/block1/unit_2/bottleneck_v1/conv2/BatchNorm/moving_mean"
      }
    }
  }
  attr {
    key: "allowed_devices"
    value {
      list {
      }
    }
  }
  attr {
    key: "container"
    value {
      s: ""
    }
  }
  attr {
    key: "dtype"
    value {
      type: DT_FLOAT
    }
  }
  attr {
    key: "shape"
    value {
      shape {
        dim {
          size: 64
        }
      }
    }
  }
  attr {
    key: "shared_name"
    value {
      s: "resnet_v1_101/block1/unit_2/bottleneck_v1/conv2/BatchNorm/moving_mean"
    }
  }
}
node {
  name: "resnet_v1_101/block1/unit_2/bottleneck_v1/conv2/BatchNorm/moving_mean/IsInitialized/VarIsInitializedOp"
  op: "VarIsInitializedOp"
  input: "resnet_v1_101/block1/unit_2/bottleneck_v1/conv2/BatchNorm/moving_mean"
}
node {
  name: "resnet_v1_101/block1/unit_2/bottleneck_v1/conv2/BatchNorm/moving_mean/Assign"
  op: "AssignVariableOp"
  input: "resnet_v1_101/block1/unit_2/bottleneck_v1/conv2/BatchNorm/moving_mean"
  input: "resnet_v1_101/block1/unit_2/bottleneck_v1/conv2/BatchNorm/moving_mean/Initializer/zeros"
  attr {
    key: "dtype"
    value {
      type: DT_FLOAT
    }
  }
}
node {
  name: "resnet_v1_101/block1/unit_2/bottleneck_v1/conv2/BatchNorm/moving_mean/Read/ReadVariableOp"
  op: "ReadVariableOp"
  input: "resnet_v1_101/block1/unit_2/bottleneck_v1/conv2/BatchNorm/moving_mean"
  attr {
    key: "dtype"
    value {
      type: DT_FLOAT
    }
  }
}
node {
  name: "resnet_v1_101/block1/unit_2/bottleneck_v1/conv2/BatchNorm/moving_variance/Initializer/ones"
  op: "Const"
  attr {
    key: "_class"
    value {
      list {
        s: "loc:@resnet_v1_101/block1/unit_2/bottleneck_v1/conv2/BatchNorm/moving_variance"
      }
    }
  }
  attr {
    key: "dtype"
    value {
      type: DT_FLOAT
    }
  }
  attr {
    key: "value"
    value {
      tensor {
        dtype: DT_FLOAT
        tensor_shape {
          dim {
            size: 64
          }
        }
        float_val: 1.0
      }
    }
  }
}
node {
  name: "resnet_v1_101/block1/unit_2/bottleneck_v1/conv2/BatchNorm/moving_variance"
  op: "VarHandleOp"
  attr {
    key: "_class"
    value {
      list {
        s: "loc:@resnet_v1_101/block1/unit_2/bottleneck_v1/conv2/BatchNorm/moving_variance"
      }
    }
  }
  attr {
    key: "allowed_devices"
    value {
      list {
      }
    }
  }
  attr {
    key: "container"
    value {
      s: ""
    }
  }
  attr {
    key: "dtype"
    value {
      type: DT_FLOAT
    }
  }
  attr {
    key: "shape"
    value {
      shape {
        dim {
          size: 64
        }
      }
    }
  }
  attr {
    key: "shared_name"
    value {
      s: "resnet_v1_101/block1/unit_2/bottleneck_v1/conv2/BatchNorm/moving_variance"
    }
  }
}
node {
  name: "resnet_v1_101/block1/unit_2/bottleneck_v1/conv2/BatchNorm/moving_variance/IsInitialized/VarIsInitializedOp"
  op: "VarIsInitializedOp"
  input: "resnet_v1_101/block1/unit_2/bottleneck_v1/conv2/BatchNorm/moving_variance"
}
node {
  name: "resnet_v1_101/block1/unit_2/bottleneck_v1/conv2/BatchNorm/moving_variance/Assign"
  op: "AssignVariableOp"
  input: "resnet_v1_101/block1/unit_2/bottleneck_v1/conv2/BatchNorm/moving_variance"
  input: "resnet_v1_101/block1/unit_2/bottleneck_v1/conv2/BatchNorm/moving_variance/Initializer/ones"
  attr {
    key: "dtype"
    value {
      type: DT_FLOAT
    }
  }
}
node {
  name: "resnet_v1_101/block1/unit_2/bottleneck_v1/conv2/BatchNorm/moving_variance/Read/ReadVariableOp"
  op: "ReadVariableOp"
  input: "resnet_v1_101/block1/unit_2/bottleneck_v1/conv2/BatchNorm/moving_variance"
  attr {
    key: "dtype"
    value {
      type: DT_FLOAT
    }
  }
}
node {
  name: "resnet_v1_101/block1/unit_2/bottleneck_v1/conv2/BatchNorm/ReadVariableOp"
  op: "ReadVariableOp"
  input: "resnet_v1_101/block1/unit_2/bottleneck_v1/conv2/BatchNorm/gamma"
  attr {
    key: "dtype"
    value {
      type: DT_FLOAT
    }
  }
}
node {
  name: "resnet_v1_101/block1/unit_2/bottleneck_v1/conv2/BatchNorm/ReadVariableOp_1"
  op: "ReadVariableOp"
  input: "resnet_v1_101/block1/unit_2/bottleneck_v1/conv2/BatchNorm/beta"
  attr {
    key: "dtype"
    value {
      type: DT_FLOAT
    }
  }
}
node {
  name: "resnet_v1_101/block1/unit_2/bottleneck_v1/conv2/BatchNorm/FusedBatchNormV3/ReadVariableOp"
  op: "ReadVariableOp"
  input: "resnet_v1_101/block1/unit_2/bottleneck_v1/conv2/BatchNorm/moving_mean"
  attr {
    key: "dtype"
    value {
      type: DT_FLOAT
    }
  }
}
node {
  name: "resnet_v1_101/block1/unit_2/bottleneck_v1/conv2/BatchNorm/FusedBatchNormV3/ReadVariableOp_1"
  op: "ReadVariableOp"
  input: "resnet_v1_101/block1/unit_2/bottleneck_v1/conv2/BatchNorm/moving_variance"
  attr {
    key: "dtype"
    value {
      type: DT_FLOAT
    }
  }
}
node {
  name: "resnet_v1_101/block1/unit_2/bottleneck_v1/conv2/BatchNorm/FusedBatchNormV3"
  op: "FusedBatchNormV3"
  input: "resnet_v1_101/block1/unit_2/bottleneck_v1/conv2/Conv2D"
  input: "resnet_v1_101/block1/unit_2/bottleneck_v1/conv2/BatchNorm/ReadVariableOp"
  input: "resnet_v1_101/block1/unit_2/bottleneck_v1/conv2/BatchNorm/ReadVariableOp_1"
  input: "resnet_v1_101/block1/unit_2/bottleneck_v1/conv2/BatchNorm/FusedBatchNormV3/ReadVariableOp"
  input: "resnet_v1_101/block1/unit_2/bottleneck_v1/conv2/BatchNorm/FusedBatchNormV3/ReadVariableOp_1"
  attr {
    key: "T"
    value {
      type: DT_FLOAT
    }
  }
  attr {
    key: "U"
    value {
      type: DT_FLOAT
    }
  }
  attr {
    key: "data_format"
    value {
      s: "NHWC"
    }
  }
  attr {
    key: "epsilon"
    value {
      f: 1.0009999641624745e-05
    }
  }
  attr {
    key: "exponential_avg_factor"
    value {
      f: 1.0
    }
  }
  attr {
    key: "is_training"
    value {
      b: false
    }
  }
}
node {
  name: "resnet_v1_101/block1/unit_2/bottleneck_v1/conv2/Relu"
  op: "Relu"
  input: "resnet_v1_101/block1/unit_2/bottleneck_v1/conv2/BatchNorm/FusedBatchNormV3"
  attr {
    key: "T"
    value {
      type: DT_FLOAT
    }
  }
}
node {
  name: "resnet_v1_101/block1/unit_2/bottleneck_v1/conv3/weights/Initializer/truncated_normal/shape"
  op: "Const"
  attr {
    key: "_class"
    value {
      list {
        s: "loc:@resnet_v1_101/block1/unit_2/bottleneck_v1/conv3/weights"
      }
    }
  }
  attr {
    key: "dtype"
    value {
      type: DT_INT32
    }
  }
  attr {
    key: "value"
    value {
      tensor {
        dtype: DT_INT32
        tensor_shape {
          dim {
            size: 4
          }
        }
        tensor_content: "\001\000\000\000\001\000\000\000@\000\000\000\000\001\000\000"
      }
    }
  }
}
node {
  name: "resnet_v1_101/block1/unit_2/bottleneck_v1/conv3/weights/Initializer/truncated_normal/mean"
  op: "Const"
  attr {
    key: "_class"
    value {
      list {
        s: "loc:@resnet_v1_101/block1/unit_2/bottleneck_v1/conv3/weights"
      }
    }
  }
  attr {
    key: "dtype"
    value {
      type: DT_FLOAT
    }
  }
  attr {
    key: "value"
    value {
      tensor {
        dtype: DT_FLOAT
        tensor_shape {
        }
        float_val: 0.0
      }
    }
  }
}
node {
  name: "resnet_v1_101/block1/unit_2/bottleneck_v1/conv3/weights/Initializer/truncated_normal/stddev"
  op: "Const"
  attr {
    key: "_class"
    value {
      list {
        s: "loc:@resnet_v1_101/block1/unit_2/bottleneck_v1/conv3/weights"
      }
    }
  }
  attr {
    key: "dtype"
    value {
      type: DT_FLOAT
    }
  }
  attr {
    key: "value"
    value {
      tensor {
        dtype: DT_FLOAT
        tensor_shape {
        }
        float_val: 0.20155644416809082
      }
    }
  }
}
node {
  name: "resnet_v1_101/block1/unit_2/bottleneck_v1/conv3/weights/Initializer/truncated_normal/TruncatedNormal"
  op: "TruncatedNormal"
  input: "resnet_v1_101/block1/unit_2/bottleneck_v1/conv3/weights/Initializer/truncated_normal/shape"
  attr {
    key: "T"
    value {
      type: DT_INT32
    }
  }
  attr {
    key: "_class"
    value {
      list {
        s: "loc:@resnet_v1_101/block1/unit_2/bottleneck_v1/conv3/weights"
      }
    }
  }
  attr {
    key: "dtype"
    value {
      type: DT_FLOAT
    }
  }
  attr {
    key: "seed"
    value {
      i: 0
    }
  }
  attr {
    key: "seed2"
    value {
      i: 0
    }
  }
}
node {
  name: "resnet_v1_101/block1/unit_2/bottleneck_v1/conv3/weights/Initializer/truncated_normal/mul"
  op: "Mul"
  input: "resnet_v1_101/block1/unit_2/bottleneck_v1/conv3/weights/Initializer/truncated_normal/TruncatedNormal"
  input: "resnet_v1_101/block1/unit_2/bottleneck_v1/conv3/weights/Initializer/truncated_normal/stddev"
  attr {
    key: "T"
    value {
      type: DT_FLOAT
    }
  }
  attr {
    key: "_class"
    value {
      list {
        s: "loc:@resnet_v1_101/block1/unit_2/bottleneck_v1/conv3/weights"
      }
    }
  }
}
node {
  name: "resnet_v1_101/block1/unit_2/bottleneck_v1/conv3/weights/Initializer/truncated_normal"
  op: "AddV2"
  input: "resnet_v1_101/block1/unit_2/bottleneck_v1/conv3/weights/Initializer/truncated_normal/mul"
  input: "resnet_v1_101/block1/unit_2/bottleneck_v1/conv3/weights/Initializer/truncated_normal/mean"
  attr {
    key: "T"
    value {
      type: DT_FLOAT
    }
  }
  attr {
    key: "_class"
    value {
      list {
        s: "loc:@resnet_v1_101/block1/unit_2/bottleneck_v1/conv3/weights"
      }
    }
  }
}
node {
  name: "resnet_v1_101/block1/unit_2/bottleneck_v1/conv3/weights"
  op: "VarHandleOp"
  attr {
    key: "_class"
    value {
      list {
        s: "loc:@resnet_v1_101/block1/unit_2/bottleneck_v1/conv3/weights"
      }
    }
  }
  attr {
    key: "allowed_devices"
    value {
      list {
      }
    }
  }
  attr {
    key: "container"
    value {
      s: ""
    }
  }
  attr {
    key: "dtype"
    value {
      type: DT_FLOAT
    }
  }
  attr {
    key: "shape"
    value {
      shape {
        dim {
          size: 1
        }
        dim {
          size: 1
        }
        dim {
          size: 64
        }
        dim {
          size: 256
        }
      }
    }
  }
  attr {
    key: "shared_name"
    value {
      s: "resnet_v1_101/block1/unit_2/bottleneck_v1/conv3/weights"
    }
  }
}
node {
  name: "resnet_v1_101/block1/unit_2/bottleneck_v1/conv3/weights/IsInitialized/VarIsInitializedOp"
  op: "VarIsInitializedOp"
  input: "resnet_v1_101/block1/unit_2/bottleneck_v1/conv3/weights"
}
node {
  name: "resnet_v1_101/block1/unit_2/bottleneck_v1/conv3/weights/Assign"
  op: "AssignVariableOp"
  input: "resnet_v1_101/block1/unit_2/bottleneck_v1/conv3/weights"
  input: "resnet_v1_101/block1/unit_2/bottleneck_v1/conv3/weights/Initializer/truncated_normal"
  attr {
    key: "dtype"
    value {
      type: DT_FLOAT
    }
  }
}
node {
  name: "resnet_v1_101/block1/unit_2/bottleneck_v1/conv3/weights/Read/ReadVariableOp"
  op: "ReadVariableOp"
  input: "resnet_v1_101/block1/unit_2/bottleneck_v1/conv3/weights"
  attr {
    key: "dtype"
    value {
      type: DT_FLOAT
    }
  }
}
node {
  name: "resnet_v1_101/block1/unit_2/bottleneck_v1/conv3/kernel/Regularizer/l2_regularizer/scale"
  op: "Const"
  attr {
    key: "dtype"
    value {
      type: DT_FLOAT
    }
  }
  attr {
    key: "value"
    value {
      tensor {
        dtype: DT_FLOAT
        tensor_shape {
        }
        float_val: 9.999999747378752e-05
      }
    }
  }
}
node {
  name: "resnet_v1_101/block1/unit_2/bottleneck_v1/conv3/kernel/Regularizer/l2_regularizer/L2Loss/ReadVariableOp"
  op: "ReadVariableOp"
  input: "resnet_v1_101/block1/unit_2/bottleneck_v1/conv3/weights"
  attr {
    key: "dtype"
    value {
      type: DT_FLOAT
    }
  }
}
node {
  name: "resnet_v1_101/block1/unit_2/bottleneck_v1/conv3/kernel/Regularizer/l2_regularizer/L2Loss"
  op: "L2Loss"
  input: "resnet_v1_101/block1/unit_2/bottleneck_v1/conv3/kernel/Regularizer/l2_regularizer/L2Loss/ReadVariableOp"
  attr {
    key: "T"
    value {
      type: DT_FLOAT
    }
  }
}
node {
  name: "resnet_v1_101/block1/unit_2/bottleneck_v1/conv3/kernel/Regularizer/l2_regularizer"
  op: "Mul"
  input: "resnet_v1_101/block1/unit_2/bottleneck_v1/conv3/kernel/Regularizer/l2_regularizer/scale"
  input: "resnet_v1_101/block1/unit_2/bottleneck_v1/conv3/kernel/Regularizer/l2_regularizer/L2Loss"
  attr {
    key: "T"
    value {
      type: DT_FLOAT
    }
  }
}
node {
  name: "resnet_v1_101/block1/unit_2/bottleneck_v1/conv3/Conv2D/ReadVariableOp"
  op: "ReadVariableOp"
  input: "resnet_v1_101/block1/unit_2/bottleneck_v1/conv3/weights"
  attr {
    key: "dtype"
    value {
      type: DT_FLOAT
    }
  }
}
node {
  name: "resnet_v1_101/block1/unit_2/bottleneck_v1/conv3/Conv2D"
  op: "Conv2D"
  input: "resnet_v1_101/block1/unit_2/bottleneck_v1/conv2/Relu"
  input: "resnet_v1_101/block1/unit_2/bottleneck_v1/conv3/Conv2D/ReadVariableOp"
  attr {
    key: "T"
    value {
      type: DT_FLOAT
    }
  }
  attr {
    key: "data_format"
    value {
      s: "NHWC"
    }
  }
  attr {
    key: "dilations"
    value {
      list {
        i: 1
        i: 1
        i: 1
        i: 1
      }
    }
  }
  attr {
    key: "explicit_paddings"
    value {
      list {
      }
    }
  }
  attr {
    key: "padding"
    value {
      s: "SAME"
    }
  }
  attr {
    key: "strides"
    value {
      list {
        i: 1
        i: 1
        i: 1
        i: 1
      }
    }
  }
  attr {
    key: "use_cudnn_on_gpu"
    value {
      b: true
    }
  }
}
node {
  name: "resnet_v1_101/block1/unit_2/bottleneck_v1/conv3/BatchNorm/gamma/Initializer/ones"
  op: "Const"
  attr {
    key: "_class"
    value {
      list {
        s: "loc:@resnet_v1_101/block1/unit_2/bottleneck_v1/conv3/BatchNorm/gamma"
      }
    }
  }
  attr {
    key: "dtype"
    value {
      type: DT_FLOAT
    }
  }
  attr {
    key: "value"
    value {
      tensor {
        dtype: DT_FLOAT
        tensor_shape {
          dim {
            size: 256
          }
        }
        float_val: 1.0
      }
    }
  }
}
node {
  name: "resnet_v1_101/block1/unit_2/bottleneck_v1/conv3/BatchNorm/gamma"
  op: "VarHandleOp"
  attr {
    key: "_class"
    value {
      list {
        s: "loc:@resnet_v1_101/block1/unit_2/bottleneck_v1/conv3/BatchNorm/gamma"
      }
    }
  }
  attr {
    key: "allowed_devices"
    value {
      list {
      }
    }
  }
  attr {
    key: "container"
    value {
      s: ""
    }
  }
  attr {
    key: "dtype"
    value {
      type: DT_FLOAT
    }
  }
  attr {
    key: "shape"
    value {
      shape {
        dim {
          size: 256
        }
      }
    }
  }
  attr {
    key: "shared_name"
    value {
      s: "resnet_v1_101/block1/unit_2/bottleneck_v1/conv3/BatchNorm/gamma"
    }
  }
}
node {
  name: "resnet_v1_101/block1/unit_2/bottleneck_v1/conv3/BatchNorm/gamma/IsInitialized/VarIsInitializedOp"
  op: "VarIsInitializedOp"
  input: "resnet_v1_101/block1/unit_2/bottleneck_v1/conv3/BatchNorm/gamma"
}
node {
  name: "resnet_v1_101/block1/unit_2/bottleneck_v1/conv3/BatchNorm/gamma/Assign"
  op: "AssignVariableOp"
  input: "resnet_v1_101/block1/unit_2/bottleneck_v1/conv3/BatchNorm/gamma"
  input: "resnet_v1_101/block1/unit_2/bottleneck_v1/conv3/BatchNorm/gamma/Initializer/ones"
  attr {
    key: "dtype"
    value {
      type: DT_FLOAT
    }
  }
}
node {
  name: "resnet_v1_101/block1/unit_2/bottleneck_v1/conv3/BatchNorm/gamma/Read/ReadVariableOp"
  op: "ReadVariableOp"
  input: "resnet_v1_101/block1/unit_2/bottleneck_v1/conv3/BatchNorm/gamma"
  attr {
    key: "dtype"
    value {
      type: DT_FLOAT
    }
  }
}
node {
  name: "resnet_v1_101/block1/unit_2/bottleneck_v1/conv3/BatchNorm/beta/Initializer/zeros"
  op: "Const"
  attr {
    key: "_class"
    value {
      list {
        s: "loc:@resnet_v1_101/block1/unit_2/bottleneck_v1/conv3/BatchNorm/beta"
      }
    }
  }
  attr {
    key: "dtype"
    value {
      type: DT_FLOAT
    }
  }
  attr {
    key: "value"
    value {
      tensor {
        dtype: DT_FLOAT
        tensor_shape {
          dim {
            size: 256
          }
        }
        float_val: 0.0
      }
    }
  }
}
node {
  name: "resnet_v1_101/block1/unit_2/bottleneck_v1/conv3/BatchNorm/beta"
  op: "VarHandleOp"
  attr {
    key: "_class"
    value {
      list {
        s: "loc:@resnet_v1_101/block1/unit_2/bottleneck_v1/conv3/BatchNorm/beta"
      }
    }
  }
  attr {
    key: "allowed_devices"
    value {
      list {
      }
    }
  }
  attr {
    key: "container"
    value {
      s: ""
    }
  }
  attr {
    key: "dtype"
    value {
      type: DT_FLOAT
    }
  }
  attr {
    key: "shape"
    value {
      shape {
        dim {
          size: 256
        }
      }
    }
  }
  attr {
    key: "shared_name"
    value {
      s: "resnet_v1_101/block1/unit_2/bottleneck_v1/conv3/BatchNorm/beta"
    }
  }
}
node {
  name: "resnet_v1_101/block1/unit_2/bottleneck_v1/conv3/BatchNorm/beta/IsInitialized/VarIsInitializedOp"
  op: "VarIsInitializedOp"
  input: "resnet_v1_101/block1/unit_2/bottleneck_v1/conv3/BatchNorm/beta"
}
node {
  name: "resnet_v1_101/block1/unit_2/bottleneck_v1/conv3/BatchNorm/beta/Assign"
  op: "AssignVariableOp"
  input: "resnet_v1_101/block1/unit_2/bottleneck_v1/conv3/BatchNorm/beta"
  input: "resnet_v1_101/block1/unit_2/bottleneck_v1/conv3/BatchNorm/beta/Initializer/zeros"
  attr {
    key: "dtype"
    value {
      type: DT_FLOAT
    }
  }
}
node {
  name: "resnet_v1_101/block1/unit_2/bottleneck_v1/conv3/BatchNorm/beta/Read/ReadVariableOp"
  op: "ReadVariableOp"
  input: "resnet_v1_101/block1/unit_2/bottleneck_v1/conv3/BatchNorm/beta"
  attr {
    key: "dtype"
    value {
      type: DT_FLOAT
    }
  }
}
node {
  name: "resnet_v1_101/block1/unit_2/bottleneck_v1/conv3/BatchNorm/moving_mean/Initializer/zeros"
  op: "Const"
  attr {
    key: "_class"
    value {
      list {
        s: "loc:@resnet_v1_101/block1/unit_2/bottleneck_v1/conv3/BatchNorm/moving_mean"
      }
    }
  }
  attr {
    key: "dtype"
    value {
      type: DT_FLOAT
    }
  }
  attr {
    key: "value"
    value {
      tensor {
        dtype: DT_FLOAT
        tensor_shape {
          dim {
            size: 256
          }
        }
        float_val: 0.0
      }
    }
  }
}
node {
  name: "resnet_v1_101/block1/unit_2/bottleneck_v1/conv3/BatchNorm/moving_mean"
  op: "VarHandleOp"
  attr {
    key: "_class"
    value {
      list {
        s: "loc:@resnet_v1_101/block1/unit_2/bottleneck_v1/conv3/BatchNorm/moving_mean"
      }
    }
  }
  attr {
    key: "allowed_devices"
    value {
      list {
      }
    }
  }
  attr {
    key: "container"
    value {
      s: ""
    }
  }
  attr {
    key: "dtype"
    value {
      type: DT_FLOAT
    }
  }
  attr {
    key: "shape"
    value {
      shape {
        dim {
          size: 256
        }
      }
    }
  }
  attr {
    key: "shared_name"
    value {
      s: "resnet_v1_101/block1/unit_2/bottleneck_v1/conv3/BatchNorm/moving_mean"
    }
  }
}
node {
  name: "resnet_v1_101/block1/unit_2/bottleneck_v1/conv3/BatchNorm/moving_mean/IsInitialized/VarIsInitializedOp"
  op: "VarIsInitializedOp"
  input: "resnet_v1_101/block1/unit_2/bottleneck_v1/conv3/BatchNorm/moving_mean"
}
node {
  name: "resnet_v1_101/block1/unit_2/bottleneck_v1/conv3/BatchNorm/moving_mean/Assign"
  op: "AssignVariableOp"
  input: "resnet_v1_101/block1/unit_2/bottleneck_v1/conv3/BatchNorm/moving_mean"
  input: "resnet_v1_101/block1/unit_2/bottleneck_v1/conv3/BatchNorm/moving_mean/Initializer/zeros"
  attr {
    key: "dtype"
    value {
      type: DT_FLOAT
    }
  }
}
node {
  name: "resnet_v1_101/block1/unit_2/bottleneck_v1/conv3/BatchNorm/moving_mean/Read/ReadVariableOp"
  op: "ReadVariableOp"
  input: "resnet_v1_101/block1/unit_2/bottleneck_v1/conv3/BatchNorm/moving_mean"
  attr {
    key: "dtype"
    value {
      type: DT_FLOAT
    }
  }
}
node {
  name: "resnet_v1_101/block1/unit_2/bottleneck_v1/conv3/BatchNorm/moving_variance/Initializer/ones"
  op: "Const"
  attr {
    key: "_class"
    value {
      list {
        s: "loc:@resnet_v1_101/block1/unit_2/bottleneck_v1/conv3/BatchNorm/moving_variance"
      }
    }
  }
  attr {
    key: "dtype"
    value {
      type: DT_FLOAT
    }
  }
  attr {
    key: "value"
    value {
      tensor {
        dtype: DT_FLOAT
        tensor_shape {
          dim {
            size: 256
          }
        }
        float_val: 1.0
      }
    }
  }
}
node {
  name: "resnet_v1_101/block1/unit_2/bottleneck_v1/conv3/BatchNorm/moving_variance"
  op: "VarHandleOp"
  attr {
    key: "_class"
    value {
      list {
        s: "loc:@resnet_v1_101/block1/unit_2/bottleneck_v1/conv3/BatchNorm/moving_variance"
      }
    }
  }
  attr {
    key: "allowed_devices"
    value {
      list {
      }
    }
  }
  attr {
    key: "container"
    value {
      s: ""
    }
  }
  attr {
    key: "dtype"
    value {
      type: DT_FLOAT
    }
  }
  attr {
    key: "shape"
    value {
      shape {
        dim {
          size: 256
        }
      }
    }
  }
  attr {
    key: "shared_name"
    value {
      s: "resnet_v1_101/block1/unit_2/bottleneck_v1/conv3/BatchNorm/moving_variance"
    }
  }
}
node {
  name: "resnet_v1_101/block1/unit_2/bottleneck_v1/conv3/BatchNorm/moving_variance/IsInitialized/VarIsInitializedOp"
  op: "VarIsInitializedOp"
  input: "resnet_v1_101/block1/unit_2/bottleneck_v1/conv3/BatchNorm/moving_variance"
}
node {
  name: "resnet_v1_101/block1/unit_2/bottleneck_v1/conv3/BatchNorm/moving_variance/Assign"
  op: "AssignVariableOp"
  input: "resnet_v1_101/block1/unit_2/bottleneck_v1/conv3/BatchNorm/moving_variance"
  input: "resnet_v1_101/block1/unit_2/bottleneck_v1/conv3/BatchNorm/moving_variance/Initializer/ones"
  attr {
    key: "dtype"
    value {
      type: DT_FLOAT
    }
  }
}
node {
  name: "resnet_v1_101/block1/unit_2/bottleneck_v1/conv3/BatchNorm/moving_variance/Read/ReadVariableOp"
  op: "ReadVariableOp"
  input: "resnet_v1_101/block1/unit_2/bottleneck_v1/conv3/BatchNorm/moving_variance"
  attr {
    key: "dtype"
    value {
      type: DT_FLOAT
    }
  }
}
node {
  name: "resnet_v1_101/block1/unit_2/bottleneck_v1/conv3/BatchNorm/ReadVariableOp"
  op: "ReadVariableOp"
  input: "resnet_v1_101/block1/unit_2/bottleneck_v1/conv3/BatchNorm/gamma"
  attr {
    key: "dtype"
    value {
      type: DT_FLOAT
    }
  }
}
node {
  name: "resnet_v1_101/block1/unit_2/bottleneck_v1/conv3/BatchNorm/ReadVariableOp_1"
  op: "ReadVariableOp"
  input: "resnet_v1_101/block1/unit_2/bottleneck_v1/conv3/BatchNorm/beta"
  attr {
    key: "dtype"
    value {
      type: DT_FLOAT
    }
  }
}
node {
  name: "resnet_v1_101/block1/unit_2/bottleneck_v1/conv3/BatchNorm/FusedBatchNormV3/ReadVariableOp"
  op: "ReadVariableOp"
  input: "resnet_v1_101/block1/unit_2/bottleneck_v1/conv3/BatchNorm/moving_mean"
  attr {
    key: "dtype"
    value {
      type: DT_FLOAT
    }
  }
}
node {
  name: "resnet_v1_101/block1/unit_2/bottleneck_v1/conv3/BatchNorm/FusedBatchNormV3/ReadVariableOp_1"
  op: "ReadVariableOp"
  input: "resnet_v1_101/block1/unit_2/bottleneck_v1/conv3/BatchNorm/moving_variance"
  attr {
    key: "dtype"
    value {
      type: DT_FLOAT
    }
  }
}
node {
  name: "resnet_v1_101/block1/unit_2/bottleneck_v1/conv3/BatchNorm/FusedBatchNormV3"
  op: "FusedBatchNormV3"
  input: "resnet_v1_101/block1/unit_2/bottleneck_v1/conv3/Conv2D"
  input: "resnet_v1_101/block1/unit_2/bottleneck_v1/conv3/BatchNorm/ReadVariableOp"
  input: "resnet_v1_101/block1/unit_2/bottleneck_v1/conv3/BatchNorm/ReadVariableOp_1"
  input: "resnet_v1_101/block1/unit_2/bottleneck_v1/conv3/BatchNorm/FusedBatchNormV3/ReadVariableOp"
  input: "resnet_v1_101/block1/unit_2/bottleneck_v1/conv3/BatchNorm/FusedBatchNormV3/ReadVariableOp_1"
  attr {
    key: "T"
    value {
      type: DT_FLOAT
    }
  }
  attr {
    key: "U"
    value {
      type: DT_FLOAT
    }
  }
  attr {
    key: "data_format"
    value {
      s: "NHWC"
    }
  }
  attr {
    key: "epsilon"
    value {
      f: 1.0009999641624745e-05
    }
  }
  attr {
    key: "exponential_avg_factor"
    value {
      f: 1.0
    }
  }
  attr {
    key: "is_training"
    value {
      b: false
    }
  }
}
node {
  name: "resnet_v1_101/block1/unit_2/bottleneck_v1/add"
  op: "AddV2"
  input: "resnet_v1_101/block1/unit_1/bottleneck_v1/Relu"
  input: "resnet_v1_101/block1/unit_2/bottleneck_v1/conv3/BatchNorm/FusedBatchNormV3"
  attr {
    key: "T"
    value {
      type: DT_FLOAT
    }
  }
}
node {
  name: "resnet_v1_101/block1/unit_2/bottleneck_v1/Relu"
  op: "Relu"
  input: "resnet_v1_101/block1/unit_2/bottleneck_v1/add"
  attr {
    key: "T"
    value {
      type: DT_FLOAT
    }
  }
}
node {
  name: "resnet_v1_101/block1/unit_3/bottleneck_v1/shortcut/MaxPool"
  op: "MaxPool"
  input: "resnet_v1_101/block1/unit_2/bottleneck_v1/Relu"
  attr {
    key: "T"
    value {
      type: DT_FLOAT
    }
  }
  attr {
    key: "data_format"
    value {
      s: "NHWC"
    }
  }
  attr {
    key: "explicit_paddings"
    value {
      list {
      }
    }
  }
  attr {
    key: "ksize"
    value {
      list {
        i: 1
        i: 1
        i: 1
        i: 1
      }
    }
  }
  attr {
    key: "padding"
    value {
      s: "SAME"
    }
  }
  attr {
    key: "strides"
    value {
      list {
        i: 1
        i: 2
        i: 2
        i: 1
      }
    }
  }
}
node {
  name: "resnet_v1_101/block1/unit_3/bottleneck_v1/conv1/weights/Initializer/truncated_normal/shape"
  op: "Const"
  attr {
    key: "_class"
    value {
      list {
        s: "loc:@resnet_v1_101/block1/unit_3/bottleneck_v1/conv1/weights"
      }
    }
  }
  attr {
    key: "dtype"
    value {
      type: DT_INT32
    }
  }
  attr {
    key: "value"
    value {
      tensor {
        dtype: DT_INT32
        tensor_shape {
          dim {
            size: 4
          }
        }
        tensor_content: "\001\000\000\000\001\000\000\000\000\001\000\000@\000\000\000"
      }
    }
  }
}
node {
  name: "resnet_v1_101/block1/unit_3/bottleneck_v1/conv1/weights/Initializer/truncated_normal/mean"
  op: "Const"
  attr {
    key: "_class"
    value {
      list {
        s: "loc:@resnet_v1_101/block1/unit_3/bottleneck_v1/conv1/weights"
      }
    }
  }
  attr {
    key: "dtype"
    value {
      type: DT_FLOAT
    }
  }
  attr {
    key: "value"
    value {
      tensor {
        dtype: DT_FLOAT
        tensor_shape {
        }
        float_val: 0.0
      }
    }
  }
}
node {
  name: "resnet_v1_101/block1/unit_3/bottleneck_v1/conv1/weights/Initializer/truncated_normal/stddev"
  op: "Const"
  attr {
    key: "_class"
    value {
      list {
        s: "loc:@resnet_v1_101/block1/unit_3/bottleneck_v1/conv1/weights"
      }
    }
  }
  attr {
    key: "dtype"
    value {
      type: DT_FLOAT
    }
  }
  attr {
    key: "value"
    value {
      tensor {
        dtype: DT_FLOAT
        tensor_shape {
        }
        float_val: 0.10077822208404541
      }
    }
  }
}
node {
  name: "resnet_v1_101/block1/unit_3/bottleneck_v1/conv1/weights/Initializer/truncated_normal/TruncatedNormal"
  op: "TruncatedNormal"
  input: "resnet_v1_101/block1/unit_3/bottleneck_v1/conv1/weights/Initializer/truncated_normal/shape"
  attr {
    key: "T"
    value {
      type: DT_INT32
    }
  }
  attr {
    key: "_class"
    value {
      list {
        s: "loc:@resnet_v1_101/block1/unit_3/bottleneck_v1/conv1/weights"
      }
    }
  }
  attr {
    key: "dtype"
    value {
      type: DT_FLOAT
    }
  }
  attr {
    key: "seed"
    value {
      i: 0
    }
  }
  attr {
    key: "seed2"
    value {
      i: 0
    }
  }
}
node {
  name: "resnet_v1_101/block1/unit_3/bottleneck_v1/conv1/weights/Initializer/truncated_normal/mul"
  op: "Mul"
  input: "resnet_v1_101/block1/unit_3/bottleneck_v1/conv1/weights/Initializer/truncated_normal/TruncatedNormal"
  input: "resnet_v1_101/block1/unit_3/bottleneck_v1/conv1/weights/Initializer/truncated_normal/stddev"
  attr {
    key: "T"
    value {
      type: DT_FLOAT
    }
  }
  attr {
    key: "_class"
    value {
      list {
        s: "loc:@resnet_v1_101/block1/unit_3/bottleneck_v1/conv1/weights"
      }
    }
  }
}
node {
  name: "resnet_v1_101/block1/unit_3/bottleneck_v1/conv1/weights/Initializer/truncated_normal"
  op: "AddV2"
  input: "resnet_v1_101/block1/unit_3/bottleneck_v1/conv1/weights/Initializer/truncated_normal/mul"
  input: "resnet_v1_101/block1/unit_3/bottleneck_v1/conv1/weights/Initializer/truncated_normal/mean"
  attr {
    key: "T"
    value {
      type: DT_FLOAT
    }
  }
  attr {
    key: "_class"
    value {
      list {
        s: "loc:@resnet_v1_101/block1/unit_3/bottleneck_v1/conv1/weights"
      }
    }
  }
}
node {
  name: "resnet_v1_101/block1/unit_3/bottleneck_v1/conv1/weights"
  op: "VarHandleOp"
  attr {
    key: "_class"
    value {
      list {
        s: "loc:@resnet_v1_101/block1/unit_3/bottleneck_v1/conv1/weights"
      }
    }
  }
  attr {
    key: "allowed_devices"
    value {
      list {
      }
    }
  }
  attr {
    key: "container"
    value {
      s: ""
    }
  }
  attr {
    key: "dtype"
    value {
      type: DT_FLOAT
    }
  }
  attr {
    key: "shape"
    value {
      shape {
        dim {
          size: 1
        }
        dim {
          size: 1
        }
        dim {
          size: 256
        }
        dim {
          size: 64
        }
      }
    }
  }
  attr {
    key: "shared_name"
    value {
      s: "resnet_v1_101/block1/unit_3/bottleneck_v1/conv1/weights"
    }
  }
}
node {
  name: "resnet_v1_101/block1/unit_3/bottleneck_v1/conv1/weights/IsInitialized/VarIsInitializedOp"
…
  input: "^save/AssignVariableOp_433"
  input: "^save/AssignVariableOp_434"
  input: "^save/AssignVariableOp_435"
  input: "^save/AssignVariableOp_436"
  input: "^save/AssignVariableOp_437"
  input: "^save/AssignVariableOp_438"
  input: "^save/AssignVariableOp_439"
  input: "^save/AssignVariableOp_44"
  input: "^save/AssignVariableOp_440"
  input: "^save/AssignVariableOp_441"
  input: "^save/AssignVariableOp_442"
  input: "^save/AssignVariableOp_443"
  input: "^save/AssignVariableOp_444"
  input: "^save/AssignVariableOp_445"
  input: "^save/AssignVariableOp_446"
  input: "^save/AssignVariableOp_447"
  input: "^save/AssignVariableOp_448"
  input: "^save/AssignVariableOp_449"
  input: "^save/AssignVariableOp_45"
  input: "^save/AssignVariableOp_450"
  input: "^save/AssignVariableOp_451"
  input: "^save/AssignVariableOp_452"
  input: "^save/AssignVariableOp_453"
  input: "^save/AssignVariableOp_454"
  input: "^save/AssignVariableOp_455"
  input: "^save/AssignVariableOp_456"
  input: "^save/AssignVariableOp_457"
  input: "^save/AssignVariableOp_458"
  input: "^save/AssignVariableOp_459"
  input: "^save/AssignVariableOp_46"
  input: "^save/AssignVariableOp_460"
  input: "^save/AssignVariableOp_461"
  input: "^save/AssignVariableOp_462"
  input: "^save/AssignVariableOp_463"
  input: "^save/AssignVariableOp_464"
  input: "^save/AssignVariableOp_465"
  input: "^save/AssignVariableOp_466"
  input: "^save/AssignVariableOp_467"
  input: "^save/AssignVariableOp_468"
  input: "^save/AssignVariableOp_469"
  input: "^save/AssignVariableOp_47"
  input: "^save/AssignVariableOp_470"
  input: "^save/AssignVariableOp_471"
  input: "^save/AssignVariableOp_472"
  input: "^save/AssignVariableOp_473"
  input: "^save/AssignVariableOp_474"
  input: "^save/AssignVariableOp_475"
  input: "^save/AssignVariableOp_476"
  input: "^save/AssignVariableOp_477"
  input: "^save/AssignVariableOp_478"
  input: "^save/AssignVariableOp_479"
  input: "^save/AssignVariableOp_48"
  input: "^save/AssignVariableOp_480"
  input: "^save/AssignVariableOp_481"
  input: "^save/AssignVariableOp_482"
  input: "^save/AssignVariableOp_483"
  input: "^save/AssignVariableOp_484"
  input: "^save/AssignVariableOp_485"
  input: "^save/AssignVariableOp_486"
  input: "^save/AssignVariableOp_487"
  input: "^save/AssignVariableOp_488"
  input: "^save/AssignVariableOp_489"
  input: "^save/AssignVariableOp_49"
  input: "^save/AssignVariableOp_490"
  input: "^save/AssignVariableOp_491"
  input: "^save/AssignVariableOp_492"
  input: "^save/AssignVariableOp_493"
  input: "^save/AssignVariableOp_494"
  input: "^save/AssignVariableOp_495"
  input: "^save/AssignVariableOp_496"
  input: "^save/AssignVariableOp_497"
  input: "^save/AssignVariableOp_498"
  input: "^save/AssignVariableOp_499"
  input: "^save/AssignVariableOp_5"
  input: "^save/AssignVariableOp_50"
  input: "^save/AssignVariableOp_500"
  input: "^save/AssignVariableOp_501"
  input: "^save/AssignVariableOp_502"
  input: "^save/AssignVariableOp_503"
  input: "^save/AssignVariableOp_504"
  input: "^save/AssignVariableOp_505"
  input: "^save/AssignVariableOp_506"
  input: "^save/AssignVariableOp_507"
  input: "^save/AssignVariableOp_508"
  input: "^save/AssignVariableOp_509"
  input: "^save/AssignVariableOp_51"
  input: "^save/AssignVariableOp_510"
  input: "^save/AssignVariableOp_511"
  input: "^save/AssignVariableOp_512"
  input: "^save/AssignVariableOp_513"
  input: "^save/AssignVariableOp_514"
  input: "^save/AssignVariableOp_515"
  input: "^save/AssignVariableOp_516"
  input: "^save/AssignVariableOp_517"
  input: "^save/AssignVariableOp_518"
  input: "^save/AssignVariableOp_519"
  input: "^save/AssignVariableOp_52"
  input: "^save/AssignVariableOp_520"
  input: "^save/AssignVariableOp_521"
  input: "^save/AssignVariableOp_522"
  input: "^save/AssignVariableOp_523"
  input: "^save/AssignVariableOp_53"
  input: "^save/AssignVariableOp_54"
  input: "^save/AssignVariableOp_55"
  input: "^save/AssignVariableOp_56"
  input: "^save/AssignVariableOp_57"
  input: "^save/AssignVariableOp_58"
  input: "^save/AssignVariableOp_59"
  input: "^save/AssignVariableOp_6"
  input: "^save/AssignVariableOp_60"
  input: "^save/AssignVariableOp_61"
  input: "^save/AssignVariableOp_62"
  input: "^save/AssignVariableOp_63"
  input: "^save/AssignVariableOp_64"
  input: "^save/AssignVariableOp_65"
  input: "^save/AssignVariableOp_66"
  input: "^save/AssignVariableOp_67"
  input: "^save/AssignVariableOp_68"
  input: "^save/AssignVariableOp_69"
  input: "^save/AssignVariableOp_7"
  input: "^save/AssignVariableOp_70"
  input: "^save/AssignVariableOp_71"
  input: "^save/AssignVariableOp_72"
  input: "^save/AssignVariableOp_73"
  input: "^save/AssignVariableOp_74"
  input: "^save/AssignVariableOp_75"
  input: "^save/AssignVariableOp_76"
  input: "^save/AssignVariableOp_77"
  input: "^save/AssignVariableOp_78"
  input: "^save/AssignVariableOp_79"
  input: "^save/AssignVariableOp_8"
  input: "^save/AssignVariableOp_80"
  input: "^save/AssignVariableOp_81"
  input: "^save/AssignVariableOp_82"
  input: "^save/AssignVariableOp_83"
  input: "^save/AssignVariableOp_84"
  input: "^save/AssignVariableOp_85"
  input: "^save/AssignVariableOp_86"
  input: "^save/AssignVariableOp_87"
  input: "^save/AssignVariableOp_88"
  input: "^save/AssignVariableOp_89"
  input: "^save/AssignVariableOp_9"
  input: "^save/AssignVariableOp_90"
  input: "^save/AssignVariableOp_91"
  input: "^save/AssignVariableOp_92"
  input: "^save/AssignVariableOp_93"
  input: "^save/AssignVariableOp_94"
  input: "^save/AssignVariableOp_95"
  input: "^save/AssignVariableOp_96"
  input: "^save/AssignVariableOp_97"
  input: "^save/AssignVariableOp_98"
  input: "^save/AssignVariableOp_99"
}
node {
  name: "init"
  op: "NoOp"
  input: "^pose/locref_pred/block4/biases/Assign"
  input: "^pose/locref_pred/block4/weights/Assign"
  input: "^pose/part_pred/block4/biases/Assign"
  input: "^pose/part_pred/block4/weights/Assign"
  input: "^resnet_v1_101/block1/unit_1/bottleneck_v1/conv1/BatchNorm/beta/Assign"
  input: "^resnet_v1_101/block1/unit_1/bottleneck_v1/conv1/BatchNorm/gamma/Assign"
  input: "^resnet_v1_101/block1/unit_1/bottleneck_v1/conv1/BatchNorm/moving_mean/Assign"
  input: "^resnet_v1_101/block1/unit_1/bottleneck_v1/conv1/BatchNorm/moving_variance/Assign"
  input: "^resnet_v1_101/block1/unit_1/bottleneck_v1/conv1/weights/Assign"
  input: "^resnet_v1_101/block1/unit_1/bottleneck_v1/conv2/BatchNorm/beta/Assign"
  input: "^resnet_v1_101/block1/unit_1/bottleneck_v1/conv2/BatchNorm/gamma/Assign"
  input: "^resnet_v1_101/block1/unit_1/bottleneck_v1/conv2/BatchNorm/moving_mean/Assign"
  input: "^resnet_v1_101/block1/unit_1/bottleneck_v1/conv2/BatchNorm/moving_variance/Assign"
  input: "^resnet_v1_101/block1/unit_1/bottleneck_v1/conv2/weights/Assign"
  input: "^resnet_v1_101/block1/unit_1/bottleneck_v1/conv3/BatchNorm/beta/Assign"
  input: "^resnet_v1_101/block1/unit_1/bottleneck_v1/conv3/BatchNorm/gamma/Assign"
  input: "^resnet_v1_101/block1/unit_1/bottleneck_v1/conv3/BatchNorm/moving_mean/Assign"
  input: "^resnet_v1_101/block1/unit_1/bottleneck_v1/conv3/BatchNorm/moving_variance/Assign"
  input: "^resnet_v1_101/block1/unit_1/bottleneck_v1/conv3/weights/Assign"
  input: "^resnet_v1_101/block1/unit_1/bottleneck_v1/shortcut/BatchNorm/beta/Assign"
  input: "^resnet_v1_101/block1/unit_1/bottleneck_v1/shortcut/BatchNorm/gamma/Assign"
  input: "^resnet_v1_101/block1/unit_1/bottleneck_v1/shortcut/BatchNorm/moving_mean/Assign"
  input: "^resnet_v1_101/block1/unit_1/bottleneck_v1/shortcut/BatchNorm/moving_variance/Assign"
  input: "^resnet_v1_101/block1/unit_1/bottleneck_v1/shortcut/weights/Assign"
  input: "^resnet_v1_101/block1/unit_2/bottleneck_v1/conv1/BatchNorm/beta/Assign"
  input: "^resnet_v1_101/block1/unit_2/bottleneck_v1/conv1/BatchNorm/gamma/Assign"
  input: "^resnet_v1_101/block1/unit_2/bottleneck_v1/conv1/BatchNorm/moving_mean/Assign"
  input: "^resnet_v1_101/block1/unit_2/bottleneck_v1/conv1/BatchNorm/moving_variance/Assign"
  input: "^resnet_v1_101/block1/unit_2/bottleneck_v1/conv1/weights/Assign"
  input: "^resnet_v1_101/block1/unit_2/bottleneck_v1/conv2/BatchNorm/beta/Assign"
  input: "^resnet_v1_101/block1/unit_2/bottleneck_v1/conv2/BatchNorm/gamma/Assign"
  input: "^resnet_v1_101/block1/unit_2/bottleneck_v1/conv2/BatchNorm/moving_mean/Assign"
  input: "^resnet_v1_101/block1/unit_2/bottleneck_v1/conv2/BatchNorm/moving_variance/Assign"
  input: "^resnet_v1_101/block1/unit_2/bottleneck_v1/conv2/weights/Assign"
  input: "^resnet_v1_101/block1/unit_2/bottleneck_v1/conv3/BatchNorm/beta/Assign"
  input: "^resnet_v1_101/block1/unit_2/bottleneck_v1/conv3/BatchNorm/gamma/Assign"
  input: "^resnet_v1_101/block1/unit_2/bottleneck_v1/conv3/BatchNorm/moving_mean/Assign"
  input: "^resnet_v1_101/block1/unit_2/bottleneck_v1/conv3/BatchNorm/moving_variance/Assign"
  input: "^resnet_v1_101/block1/unit_2/bottleneck_v1/conv3/weights/Assign"
  input: "^resnet_v1_101/block1/unit_3/bottleneck_v1/conv1/BatchNorm/beta/Assign"
  input: "^resnet_v1_101/block1/unit_3/bottleneck_v1/conv1/BatchNorm/gamma/Assign"
  input: "^resnet_v1_101/block1/unit_3/bottleneck_v1/conv1/BatchNorm/moving_mean/Assign"
  input: "^resnet_v1_101/block1/unit_3/bottleneck_v1/conv1/BatchNorm/moving_variance/Assign"
  input: "^resnet_v1_101/block1/unit_3/bottleneck_v1/conv1/weights/Assign"
  input: "^resnet_v1_101/block1/unit_3/bottleneck_v1/conv2/BatchNorm/beta/Assign"
  input: "^resnet_v1_101/block1/unit_3/bottleneck_v1/conv2/BatchNorm/gamma/Assign"
  input: "^resnet_v1_101/block1/unit_3/bottleneck_v1/conv2/BatchNorm/moving_mean/Assign"
  input: "^resnet_v1_101/block1/unit_3/bottleneck_v1/conv2/BatchNorm/moving_variance/Assign"
  input: "^resnet_v1_101/block1/unit_3/bottleneck_v1/conv2/weights/Assign"
  input: "^resnet_v1_101/block1/unit_3/bottleneck_v1/conv3/BatchNorm/beta/Assign"
  input: "^resnet_v1_101/block1/unit_3/bottleneck_v1/conv3/BatchNorm/gamma/Assign"
  input: "^resnet_v1_101/block1/unit_3/bottleneck_v1/conv3/BatchNorm/moving_mean/Assign"
  input: "^resnet_v1_101/block1/unit_3/bottleneck_v1/conv3/BatchNorm/moving_variance/Assign"
  input: "^resnet_v1_101/block1/unit_3/bottleneck_v1/conv3/weights/Assign"
  input: "^resnet_v1_101/block2/unit_1/bottleneck_v1/conv1/BatchNorm/beta/Assign"
  input: "^resnet_v1_101/block2/unit_1/bottleneck_v1/conv1/BatchNorm/gamma/Assign"
  input: "^resnet_v1_101/block2/unit_1/bottleneck_v1/conv1/BatchNorm/moving_mean/Assign"
  input: "^resnet_v1_101/block2/unit_1/bottleneck_v1/conv1/BatchNorm/moving_variance/Assign"
  input: "^resnet_v1_101/block2/unit_1/bottleneck_v1/conv1/weights/Assign"
  input: "^resnet_v1_101/block2/unit_1/bottleneck_v1/conv2/BatchNorm/beta/Assign"
  input: "^resnet_v1_101/block2/unit_1/bottleneck_v1/conv2/BatchNorm/gamma/Assign"
  input: "^resnet_v1_101/block2/unit_1/bottleneck_v1/conv2/BatchNorm/moving_mean/Assign"
  input: "^resnet_v1_101/block2/unit_1/bottleneck_v1/conv2/BatchNorm/moving_variance/Assign"
  input: "^resnet_v1_101/block2/unit_1/bottleneck_v1/conv2/weights/Assign"
  input: "^resnet_v1_101/block2/unit_1/bottleneck_v1/conv3/BatchNorm/beta/Assign"
  input: "^resnet_v1_101/block2/unit_1/bottleneck_v1/conv3/BatchNorm/gamma/Assign"
  input: "^resnet_v1_101/block2/unit_1/bottleneck_v1/conv3/BatchNorm/moving_mean/Assign"
  input: "^resnet_v1_101/block2/unit_1/bottleneck_v1/conv3/BatchNorm/moving_variance/Assign"
  input: "^resnet_v1_101/block2/unit_1/bottleneck_v1/conv3/weights/Assign"
  input: "^resnet_v1_101/block2/unit_1/bottleneck_v1/shortcut/BatchNorm/beta/Assign"
  input: "^resnet_v1_101/block2/unit_1/bottleneck_v1/shortcut/BatchNorm/gamma/Assign"
  input: "^resnet_v1_101/block2/unit_1/bottleneck_v1/shortcut/BatchNorm/moving_mean/Assign"
  input: "^resnet_v1_101/block2/unit_1/bottleneck_v1/shortcut/BatchNorm/moving_variance/Assign"
  input: "^resnet_v1_101/block2/unit_1/bottleneck_v1/shortcut/weights/Assign"
  input: "^resnet_v1_101/block2/unit_2/bottleneck_v1/conv1/BatchNorm/beta/Assign"
  input: "^resnet_v1_101/block2/unit_2/bottleneck_v1/conv1/BatchNorm/gamma/Assign"
  input: "^resnet_v1_101/block2/unit_2/bottleneck_v1/conv1/BatchNorm/moving_mean/Assign"
  input: "^resnet_v1_101/block2/unit_2/bottleneck_v1/conv1/BatchNorm/moving_variance/Assign"
  input: "^resnet_v1_101/block2/unit_2/bottleneck_v1/conv1/weights/Assign"
  input: "^resnet_v1_101/block2/unit_2/bottleneck_v1/conv2/BatchNorm/beta/Assign"
  input: "^resnet_v1_101/block2/unit_2/bottleneck_v1/conv2/BatchNorm/gamma/Assign"
  input: "^resnet_v1_101/block2/unit_2/bottleneck_v1/conv2/BatchNorm/moving_mean/Assign"
  input: "^resnet_v1_101/block2/unit_2/bottleneck_v1/conv2/BatchNorm/moving_variance/Assign"
  input: "^resnet_v1_101/block2/unit_2/bottleneck_v1/conv2/weights/Assign"
  input: "^resnet_v1_101/block2/unit_2/bottleneck_v1/conv3/BatchNorm/beta/Assign"
  input: "^resnet_v1_101/block2/unit_2/bottleneck_v1/conv3/BatchNorm/gamma/Assign"
  input: "^resnet_v1_101/block2/unit_2/bottleneck_v1/conv3/BatchNorm/moving_mean/Assign"
  input: "^resnet_v1_101/block2/unit_2/bottleneck_v1/conv3/BatchNorm/moving_variance/Assign"
  input: "^resnet_v1_101/block2/unit_2/bottleneck_v1/conv3/weights/Assign"
  input: "^resnet_v1_101/block2/unit_3/bottleneck_v1/conv1/BatchNorm/beta/Assign"
  input: "^resnet_v1_101/block2/unit_3/bottleneck_v1/conv1/BatchNorm/gamma/Assign"
  input: "^resnet_v1_101/block2/unit_3/bottleneck_v1/conv1/BatchNorm/moving_mean/Assign"
  input: "^resnet_v1_101/block2/unit_3/bottleneck_v1/conv1/BatchNorm/moving_variance/Assign"
  input: "^resnet_v1_101/block2/unit_3/bottleneck_v1/conv1/weights/Assign"
  input: "^resnet_v1_101/block2/unit_3/bottleneck_v1/conv2/BatchNorm/beta/Assign"
  input: "^resnet_v1_101/block2/unit_3/bottleneck_v1/conv2/BatchNorm/gamma/Assign"
  input: "^resnet_v1_101/block2/unit_3/bottleneck_v1/conv2/BatchNorm/moving_mean/Assign"
  input: "^resnet_v1_101/block2/unit_3/bottleneck_v1/conv2/BatchNorm/moving_variance/Assign"
  input: "^resnet_v1_101/block2/unit_3/bottleneck_v1/conv2/weights/Assign"
  input: "^resnet_v1_101/block2/unit_3/bottleneck_v1/conv3/BatchNorm/beta/Assign"
  input: "^resnet_v1_101/block2/unit_3/bottleneck_v1/conv3/BatchNorm/gamma/Assign"
  input: "^resnet_v1_101/block2/unit_3/bottleneck_v1/conv3/BatchNorm/moving_mean/Assign"
  input: "^resnet_v1_101/block2/unit_3/bottleneck_v1/conv3/BatchNorm/moving_variance/Assign"
  input: "^resnet_v1_101/block2/unit_3/bottleneck_v1/conv3/weights/Assign"
  input: "^resnet_v1_101/block2/unit_4/bottleneck_v1/conv1/BatchNorm/beta/Assign"
  input: "^resnet_v1_101/block2/unit_4/bottleneck_v1/conv1/BatchNorm/gamma/Assign"
  input: "^resnet_v1_101/block2/unit_4/bottleneck_v1/conv1/BatchNorm/moving_mean/Assign"
  input: "^resnet_v1_101/block2/unit_4/bottleneck_v1/conv1/BatchNorm/moving_variance/Assign"
  input: "^resnet_v1_101/block2/unit_4/bottleneck_v1/conv1/weights/Assign"
  input: "^resnet_v1_101/block2/unit_4/bottleneck_v1/conv2/BatchNorm/beta/Assign"
  input: "^resnet_v1_101/block2/unit_4/bottleneck_v1/conv2/BatchNorm/gamma/Assign"
  input: "^resnet_v1_101/block2/unit_4/bottleneck_v1/conv2/BatchNorm/moving_mean/Assign"
  input: "^resnet_v1_101/block2/unit_4/bottleneck_v1/conv2/BatchNorm/moving_variance/Assign"
  input: "^resnet_v1_101/block2/unit_4/bottleneck_v1/conv2/weights/Assign"
  input: "^resnet_v1_101/block2/unit_4/bottleneck_v1/conv3/BatchNorm/beta/Assign"
  input: "^resnet_v1_101/block2/unit_4/bottleneck_v1/conv3/BatchNorm/gamma/Assign"
  input: "^resnet_v1_101/block2/unit_4/bottleneck_v1/conv3/BatchNorm/moving_mean/Assign"
  input: "^resnet_v1_101/block2/unit_4/bottleneck_v1/conv3/BatchNorm/moving_variance/Assign"
  input: "^resnet_v1_101/block2/unit_4/bottleneck_v1/conv3/weights/Assign"
  input: "^resnet_v1_101/block3/unit_1/bottleneck_v1/conv1/BatchNorm/beta/Assign"
  input: "^resnet_v1_101/block3/unit_1/bottleneck_v1/conv1/BatchNorm/gamma/Assign"
  input: "^resnet_v1_101/block3/unit_1/bottleneck_v1/conv1/BatchNorm/moving_mean/Assign"
  input: "^resnet_v1_101/block3/unit_1/bottleneck_v1/conv1/BatchNorm/moving_variance/Assign"
  input: "^resnet_v1_101/block3/unit_1/bottleneck_v1/conv1/weights/Assign"
  input: "^resnet_v1_101/block3/unit_1/bottleneck_v1/conv2/BatchNorm/beta/Assign"
  input: "^resnet_v1_101/block3/unit_1/bottleneck_v1/conv2/BatchNorm/gamma/Assign"
  input: "^resnet_v1_101/block3/unit_1/bottleneck_v1/conv2/BatchNorm/moving_mean/Assign"
  input: "^resnet_v1_101/block3/unit_1/bottleneck_v1/conv2/BatchNorm/moving_variance/Assign"
  input: "^resnet_v1_101/block3/unit_1/bottleneck_v1/conv2/weights/Assign"
  input: "^resnet_v1_101/block3/unit_1/bottleneck_v1/conv3/BatchNorm/beta/Assign"
  input: "^resnet_v1_101/block3/unit_1/bottleneck_v1/conv3/BatchNorm/gamma/Assign"
  input: "^resnet_v1_101/block3/unit_1/bottleneck_v1/conv3/BatchNorm/moving_mean/Assign"
  input: "^resnet_v1_101/block3/unit_1/bottleneck_v1/conv3/BatchNorm/moving_variance/Assign"
  input: "^resnet_v1_101/block3/unit_1/bottleneck_v1/conv3/weights/Assign"
  input: "^resnet_v1_101/block3/unit_1/bottleneck_v1/shortcut/BatchNorm/beta/Assign"
  input: "^resnet_v1_101/block3/unit_1/bottleneck_v1/shortcut/BatchNorm/gamma/Assign"
  input: "^resnet_v1_101/block3/unit_1/bottleneck_v1/shortcut/BatchNorm/moving_mean/Assign"
  input: "^resnet_v1_101/block3/unit_1/bottleneck_v1/shortcut/BatchNorm/moving_variance/Assign"
  input: "^resnet_v1_101/block3/unit_1/bottleneck_v1/shortcut/weights/Assign"
  input: "^resnet_v1_101/block3/unit_10/bottleneck_v1/conv1/BatchNorm/beta/Assign"
  input: "^resnet_v1_101/block3/unit_10/bottleneck_v1/conv1/BatchNorm/gamma/Assign"
  input: "^resnet_v1_101/block3/unit_10/bottleneck_v1/conv1/BatchNorm/moving_mean/Assign"
  input: "^resnet_v1_101/block3/unit_10/bottleneck_v1/conv1/BatchNorm/moving_variance/Assign"
  input: "^resnet_v1_101/block3/unit_10/bottleneck_v1/conv1/weights/Assign"
  input: "^resnet_v1_101/block3/unit_10/bottleneck_v1/conv2/BatchNorm/beta/Assign"
  input: "^resnet_v1_101/block3/unit_10/bottleneck_v1/conv2/BatchNorm/gamma/Assign"
  input: "^resnet_v1_101/block3/unit_10/bottleneck_v1/conv2/BatchNorm/moving_mean/Assign"
  input: "^resnet_v1_101/block3/unit_10/bottleneck_v1/conv2/BatchNorm/moving_variance/Assign"
  input: "^resnet_v1_101/block3/unit_10/bottleneck_v1/conv2/weights/Assign"
  input: "^resnet_v1_101/block3/unit_10/bottleneck_v1/conv3/BatchNorm/beta/Assign"
  input: "^resnet_v1_101/block3/unit_10/bottleneck_v1/conv3/BatchNorm/gamma/Assign"
  input: "^resnet_v1_101/block3/unit_10/bottleneck_v1/conv3/BatchNorm/moving_mean/Assign"
  input: "^resnet_v1_101/block3/unit_10/bottleneck_v1/conv3/BatchNorm/moving_variance/Assign"
  input: "^resnet_v1_101/block3/unit_10/bottleneck_v1/conv3/weights/Assign"
  input: "^resnet_v1_101/block3/unit_11/bottleneck_v1/conv1/BatchNorm/beta/Assign"
  input: "^resnet_v1_101/block3/unit_11/bottleneck_v1/conv1/BatchNorm/gamma/Assign"
  input: "^resnet_v1_101/block3/unit_11/bottleneck_v1/conv1/BatchNorm/moving_mean/Assign"
  input: "^resnet_v1_101/block3/unit_11/bottleneck_v1/conv1/BatchNorm/moving_variance/Assign"
  input: "^resnet_v1_101/block3/unit_11/bottleneck_v1/conv1/weights/Assign"
  input: "^resnet_v1_101/block3/unit_11/bottleneck_v1/conv2/BatchNorm/beta/Assign"
  input: "^resnet_v1_101/block3/unit_11/bottleneck_v1/conv2/BatchNorm/gamma/Assign"
  input: "^resnet_v1_101/block3/unit_11/bottleneck_v1/conv2/BatchNorm/moving_mean/Assign"
  input: "^resnet_v1_101/block3/unit_11/bottleneck_v1/conv2/BatchNorm/moving_variance/Assign"
  input: "^resnet_v1_101/block3/unit_11/bottleneck_v1/conv2/weights/Assign"
  input: "^resnet_v1_101/block3/unit_11/bottleneck_v1/conv3/BatchNorm/beta/Assign"
  input: "^resnet_v1_101/block3/unit_11/bottleneck_v1/conv3/BatchNorm/gamma/Assign"
  input: "^resnet_v1_101/block3/unit_11/bottleneck_v1/conv3/BatchNorm/moving_mean/Assign"
  input: "^resnet_v1_101/block3/unit_11/bottleneck_v1/conv3/BatchNorm/moving_variance/Assign"
  input: "^resnet_v1_101/block3/unit_11/bottleneck_v1/conv3/weights/Assign"
  input: "^resnet_v1_101/block3/unit_12/bottleneck_v1/conv1/BatchNorm/beta/Assign"
  input: "^resnet_v1_101/block3/unit_12/bottleneck_v1/conv1/BatchNorm/gamma/Assign"
  input: "^resnet_v1_101/block3/unit_12/bottleneck_v1/conv1/BatchNorm/moving_mean/Assign"
  input: "^resnet_v1_101/block3/unit_12/bottleneck_v1/conv1/BatchNorm/moving_variance/Assign"
  input: "^resnet_v1_101/block3/unit_12/bottleneck_v1/conv1/weights/Assign"
  input: "^resnet_v1_101/block3/unit_12/bottleneck_v1/conv2/BatchNorm/beta/Assign"
  input: "^resnet_v1_101/block3/unit_12/bottleneck_v1/conv2/BatchNorm/gamma/Assign"
  input: "^resnet_v1_101/block3/unit_12/bottleneck_v1/conv2/BatchNorm/moving_mean/Assign"
  input: "^resnet_v1_101/block3/unit_12/bottleneck_v1/conv2/BatchNorm/moving_variance/Assign"
  input: "^resnet_v1_101/block3/unit_12/bottleneck_v1/conv2/weights/Assign"
  input: "^resnet_v1_101/block3/unit_12/bottleneck_v1/conv3/BatchNorm/beta/Assign"
  input: "^resnet_v1_101/block3/unit_12/bottleneck_v1/conv3/BatchNorm/gamma/Assign"
  input: "^resnet_v1_101/block3/unit_12/bottleneck_v1/conv3/BatchNorm/moving_mean/Assign"
  input: "^resnet_v1_101/block3/unit_12/bottleneck_v1/conv3/BatchNorm/moving_variance/Assign"
  input: "^resnet_v1_101/block3/unit_12/bottleneck_v1/conv3/weights/Assign"
  input: "^resnet_v1_101/block3/unit_13/bottleneck_v1/conv1/BatchNorm/beta/Assign"
  input: "^resnet_v1_101/block3/unit_13/bottleneck_v1/conv1/BatchNorm/gamma/Assign"
  input: "^resnet_v1_101/block3/unit_13/bottleneck_v1/conv1/BatchNorm/moving_mean/Assign"
  input: "^resnet_v1_101/block3/unit_13/bottleneck_v1/conv1/BatchNorm/moving_variance/Assign"
  input: "^resnet_v1_101/block3/unit_13/bottleneck_v1/conv1/weights/Assign"
  input: "^resnet_v1_101/block3/unit_13/bottleneck_v1/conv2/BatchNorm/beta/Assign"
  input: "^resnet_v1_101/block3/unit_13/bottleneck_v1/conv2/BatchNorm/gamma/Assign"
  input: "^resnet_v1_101/block3/unit_13/bottleneck_v1/conv2/BatchNorm/moving_mean/Assign"
  input: "^resnet_v1_101/block3/unit_13/bottleneck_v1/conv2/BatchNorm/moving_variance/Assign"
  input: "^resnet_v1_101/block3/unit_13/bottleneck_v1/conv2/weights/Assign"
  input: "^resnet_v1_101/block3/unit_13/bottleneck_v1/conv3/BatchNorm/beta/Assign"
  input: "^resnet_v1_101/block3/unit_13/bottleneck_v1/conv3/BatchNorm/gamma/Assign"
  input: "^resnet_v1_101/block3/unit_13/bottleneck_v1/conv3/BatchNorm/moving_mean/Assign"
  input: "^resnet_v1_101/block3/unit_13/bottleneck_v1/conv3/BatchNorm/moving_variance/Assign"
  input: "^resnet_v1_101/block3/unit_13/bottleneck_v1/conv3/weights/Assign"
  input: "^resnet_v1_101/block3/unit_14/bottleneck_v1/conv1/BatchNorm/beta/Assign"
  input: "^resnet_v1_101/block3/unit_14/bottleneck_v1/conv1/BatchNorm/gamma/Assign"
  input: "^resnet_v1_101/block3/unit_14/bottleneck_v1/conv1/BatchNorm/moving_mean/Assign"
  input: "^resnet_v1_101/block3/unit_14/bottleneck_v1/conv1/BatchNorm/moving_variance/Assign"
  input: "^resnet_v1_101/block3/unit_14/bottleneck_v1/conv1/weights/Assign"
  input: "^resnet_v1_101/block3/unit_14/bottleneck_v1/conv2/BatchNorm/beta/Assign"
  input: "^resnet_v1_101/block3/unit_14/bottleneck_v1/conv2/BatchNorm/gamma/Assign"
  input: "^resnet_v1_101/block3/unit_14/bottleneck_v1/conv2/BatchNorm/moving_mean/Assign"
  input: "^resnet_v1_101/block3/unit_14/bottleneck_v1/conv2/BatchNorm/moving_variance/Assign"
  input: "^resnet_v1_101/block3/unit_14/bottleneck_v1/conv2/weights/Assign"
  input: "^resnet_v1_101/block3/unit_14/bottleneck_v1/conv3/BatchNorm/beta/Assign"
  input: "^resnet_v1_101/block3/unit_14/bottleneck_v1/conv3/BatchNorm/gamma/Assign"
  input: "^resnet_v1_101/block3/unit_14/bottleneck_v1/conv3/BatchNorm/moving_mean/Assign"
  input: "^resnet_v1_101/block3/unit_14/bottleneck_v1/conv3/BatchNorm/moving_variance/Assign"
  input: "^resnet_v1_101/block3/unit_14/bottleneck_v1/conv3/weights/Assign"
  input: "^resnet_v1_101/block3/unit_15/bottleneck_v1/conv1/BatchNorm/beta/Assign"
  input: "^resnet_v1_101/block3/unit_15/bottleneck_v1/conv1/BatchNorm/gamma/Assign"
  input: "^resnet_v1_101/block3/unit_15/bottleneck_v1/conv1/BatchNorm/moving_mean/Assign"
  input: "^resnet_v1_101/block3/unit_15/bottleneck_v1/conv1/BatchNorm/moving_variance/Assign"
  input: "^resnet_v1_101/block3/unit_15/bottleneck_v1/conv1/weights/Assign"
  input: "^resnet_v1_101/block3/unit_15/bottleneck_v1/conv2/BatchNorm/beta/Assign"
  input: "^resnet_v1_101/block3/unit_15/bottleneck_v1/conv2/BatchNorm/gamma/Assign"
  input: "^resnet_v1_101/block3/unit_15/bottleneck_v1/conv2/BatchNorm/moving_mean/Assign"
  input: "^resnet_v1_101/block3/unit_15/bottleneck_v1/conv2/BatchNorm/moving_variance/Assign"
  input: "^resnet_v1_101/block3/unit_15/bottleneck_v1/conv2/weights/Assign"
  input: "^resnet_v1_101/block3/unit_15/bottleneck_v1/conv3/BatchNorm/beta/Assign"
  input: "^resnet_v1_101/block3/unit_15/bottleneck_v1/conv3/BatchNorm/gamma/Assign"
  input: "^resnet_v1_101/block3/unit_15/bottleneck_v1/conv3/BatchNorm/moving_mean/Assign"
  input: "^resnet_v1_101/block3/unit_15/bottleneck_v1/conv3/BatchNorm/moving_variance/Assign"
  input: "^resnet_v1_101/block3/unit_15/bottleneck_v1/conv3/weights/Assign"
  input: "^resnet_v1_101/block3/unit_16/bottleneck_v1/conv1/BatchNorm/beta/Assign"
  input: "^resnet_v1_101/block3/unit_16/bottleneck_v1/conv1/BatchNorm/gamma/Assign"
  input: "^resnet_v1_101/block3/unit_16/bottleneck_v1/conv1/BatchNorm/moving_mean/Assign"
  input: "^resnet_v1_101/block3/unit_16/bottleneck_v1/conv1/BatchNorm/moving_variance/Assign"
  input: "^resnet_v1_101/block3/unit_16/bottleneck_v1/conv1/weights/Assign"
  input: "^resnet_v1_101/block3/unit_16/bottleneck_v1/conv2/BatchNorm/beta/Assign"
  input: "^resnet_v1_101/block3/unit_16/bottleneck_v1/conv2/BatchNorm/gamma/Assign"
  input: "^resnet_v1_101/block3/unit_16/bottleneck_v1/conv2/BatchNorm/moving_mean/Assign"
  input: "^resnet_v1_101/block3/unit_16/bottleneck_v1/conv2/BatchNorm/moving_variance/Assign"
  input: "^resnet_v1_101/block3/unit_16/bottleneck_v1/conv2/weights/Assign"
  input: "^resnet_v1_101/block3/unit_16/bottleneck_v1/conv3/BatchNorm/beta/Assign"
  input: "^resnet_v1_101/block3/unit_16/bottleneck_v1/conv3/BatchNorm/gamma/Assign"
  input: "^resnet_v1_101/block3/unit_16/bottleneck_v1/conv3/BatchNorm/moving_mean/Assign"
  input: "^resnet_v1_101/block3/unit_16/bottleneck_v1/conv3/BatchNorm/moving_variance/Assign"
  input: "^resnet_v1_101/block3/unit_16/bottleneck_v1/conv3/weights/Assign"
  input: "^resnet_v1_101/block3/unit_17/bottleneck_v1/conv1/BatchNorm/beta/Assign"
  input: "^resnet_v1_101/block3/unit_17/bottleneck_v1/conv1/BatchNorm/gamma/Assign"
  input: "^resnet_v1_101/block3/unit_17/bottleneck_v1/conv1/BatchNorm/moving_mean/Assign"
  input: "^resnet_v1_101/block3/unit_17/bottleneck_v1/conv1/BatchNorm/moving_variance/Assign"
  input: "^resnet_v1_101/block3/unit_17/bottleneck_v1/conv1/weights/Assign"
  input: "^resnet_v1_101/block3/unit_17/bottleneck_v1/conv2/BatchNorm/beta/Assign"
  input: "^resnet_v1_101/block3/unit_17/bottleneck_v1/conv2/BatchNorm/gamma/Assign"
  input: "^resnet_v1_101/block3/unit_17/bottleneck_v1/conv2/BatchNorm/moving_mean/Assign"
  input: "^resnet_v1_101/block3/unit_17/bottleneck_v1/conv2/BatchNorm/moving_variance/Assign"
  input: "^resnet_v1_101/block3/unit_17/bottleneck_v1/conv2/weights/Assign"
  input: "^resnet_v1_101/block3/unit_17/bottleneck_v1/conv3/BatchNorm/beta/Assign"
  input: "^resnet_v1_101/block3/unit_17/bottleneck_v1/conv3/BatchNorm/gamma/Assign"
  input: "^resnet_v1_101/block3/unit_17/bottleneck_v1/conv3/BatchNorm/moving_mean/Assign"
  input: "^resnet_v1_101/block3/unit_17/bottleneck_v1/conv3/BatchNorm/moving_variance/Assign"
  input: "^resnet_v1_101/block3/unit_17/bottleneck_v1/conv3/weights/Assign"
  input: "^resnet_v1_101/block3/unit_18/bottleneck_v1/conv1/BatchNorm/beta/Assign"
  input: "^resnet_v1_101/block3/unit_18/bottleneck_v1/conv1/BatchNorm/gamma/Assign"
  input: "^resnet_v1_101/block3/unit_18/bottleneck_v1/conv1/BatchNorm/moving_mean/Assign"
  input: "^resnet_v1_101/block3/unit_18/bottleneck_v1/conv1/BatchNorm/moving_variance/Assign"
  input: "^resnet_v1_101/block3/unit_18/bottleneck_v1/conv1/weights/Assign"
  input: "^resnet_v1_101/block3/unit_18/bottleneck_v1/conv2/BatchNorm/beta/Assign"
  input: "^resnet_v1_101/block3/unit_18/bottleneck_v1/conv2/BatchNorm/gamma/Assign"
  input: "^resnet_v1_101/block3/unit_18/bottleneck_v1/conv2/BatchNorm/moving_mean/Assign"
  input: "^resnet_v1_101/block3/unit_18/bottleneck_v1/conv2/BatchNorm/moving_variance/Assign"
  input: "^resnet_v1_101/block3/unit_18/bottleneck_v1/conv2/weights/Assign"
  input: "^resnet_v1_101/block3/unit_18/bottleneck_v1/conv3/BatchNorm/beta/Assign"
  input: "^resnet_v1_101/block3/unit_18/bottleneck_v1/conv3/BatchNorm/gamma/Assign"
  input: "^resnet_v1_101/block3/unit_18/bottleneck_v1/conv3/BatchNorm/moving_mean/Assign"
  input: "^resnet_v1_101/block3/unit_18/bottleneck_v1/conv3/BatchNorm/moving_variance/Assign"
  input: "^resnet_v1_101/block3/unit_18/bottleneck_v1/conv3/weights/Assign"
  input: "^resnet_v1_101/block3/unit_19/bottleneck_v1/conv1/BatchNorm/beta/Assign"
  input: "^resnet_v1_101/block3/unit_19/bottleneck_v1/conv1/BatchNorm/gamma/Assign"
  input: "^resnet_v1_101/block3/unit_19/bottleneck_v1/conv1/BatchNorm/moving_mean/Assign"
  input: "^resnet_v1_101/block3/unit_19/bottleneck_v1/conv1/BatchNorm/moving_variance/Assign"
  input: "^resnet_v1_101/block3/unit_19/bottleneck_v1/conv1/weights/Assign"
  input: "^resnet_v1_101/block3/unit_19/bottleneck_v1/conv2/BatchNorm/beta/Assign"
  input: "^resnet_v1_101/block3/unit_19/bottleneck_v1/conv2/BatchNorm/gamma/Assign"
  input: "^resnet_v1_101/block3/unit_19/bottleneck_v1/conv2/BatchNorm/moving_mean/Assign"
  input: "^resnet_v1_101/block3/unit_19/bottleneck_v1/conv2/BatchNorm/moving_variance/Assign"
  input: "^resnet_v1_101/block3/unit_19/bottleneck_v1/conv2/weights/Assign"
  input: "^resnet_v1_101/block3/unit_19/bottleneck_v1/conv3/BatchNorm/beta/Assign"
  input: "^resnet_v1_101/block3/unit_19/bottleneck_v1/conv3/BatchNorm/gamma/Assign"
  input: "^resnet_v1_101/block3/unit_19/bottleneck_v1/conv3/BatchNorm/moving_mean/Assign"
  input: "^resnet_v1_101/block3/unit_19/bottleneck_v1/conv3/BatchNorm/moving_variance/Assign"
  input: "^resnet_v1_101/block3/unit_19/bottleneck_v1/conv3/weights/Assign"
  input: "^resnet_v1_101/block3/unit_2/bottleneck_v1/conv1/BatchNorm/beta/Assign"
  input: "^resnet_v1_101/block3/unit_2/bottleneck_v1/conv1/BatchNorm/gamma/Assign"
  input: "^resnet_v1_101/block3/unit_2/bottleneck_v1/conv1/BatchNorm/moving_mean/Assign"
  input: "^resnet_v1_101/block3/unit_2/bottleneck_v1/conv1/BatchNorm/moving_variance/Assign"
  input: "^resnet_v1_101/block3/unit_2/bottleneck_v1/conv1/weights/Assign"
  input: "^resnet_v1_101/block3/unit_2/bottleneck_v1/conv2/BatchNorm/beta/Assign"
  input: "^resnet_v1_101/block3/unit_2/bottleneck_v1/conv2/BatchNorm/gamma/Assign"
  input: "^resnet_v1_101/block3/unit_2/bottleneck_v1/conv2/BatchNorm/moving_mean/Assign"
  input: "^resnet_v1_101/block3/unit_2/bottleneck_v1/conv2/BatchNorm/moving_variance/Assign"
  input: "^resnet_v1_101/block3/unit_2/bottleneck_v1/conv2/weights/Assign"
  input: "^resnet_v1_101/block3/unit_2/bottleneck_v1/conv3/BatchNorm/beta/Assign"
  input: "^resnet_v1_101/block3/unit_2/bottleneck_v1/conv3/BatchNorm/gamma/Assign"
  input: "^resnet_v1_101/block3/unit_2/bottleneck_v1/conv3/BatchNorm/moving_mean/Assign"
  input: "^resnet_v1_101/block3/unit_2/bottleneck_v1/conv3/BatchNorm/moving_variance/Assign"
  input: "^resnet_v1_101/block3/unit_2/bottleneck_v1/conv3/weights/Assign"
  input: "^resnet_v1_101/block3/unit_20/bottleneck_v1/conv1/BatchNorm/beta/Assign"
  input: "^resnet_v1_101/block3/unit_20/bottleneck_v1/conv1/BatchNorm/gamma/Assign"
  input: "^resnet_v1_101/block3/unit_20/bottleneck_v1/conv1/BatchNorm/moving_mean/Assign"
  input: "^resnet_v1_101/block3/unit_20/bottleneck_v1/conv1/BatchNorm/moving_variance/Assign"
  input: "^resnet_v1_101/block3/unit_20/bottleneck_v1/conv1/weights/Assign"
  input: "^resnet_v1_101/block3/unit_20/bottleneck_v1/conv2/BatchNorm/beta/Assign"
  input: "^resnet_v1_101/block3/unit_20/bottleneck_v1/conv2/BatchNorm/gamma/Assign"
  input: "^resnet_v1_101/block3/unit_20/bottleneck_v1/conv2/BatchNorm/moving_mean/Assign"
  input: "^resnet_v1_101/block3/unit_20/bottleneck_v1/conv2/BatchNorm/moving_variance/Assign"
  input: "^resnet_v1_101/block3/unit_20/bottleneck_v1/conv2/weights/Assign"
  input: "^resnet_v1_101/block3/unit_20/bottleneck_v1/conv3/BatchNorm/beta/Assign"
  input: "^resnet_v1_101/block3/unit_20/bottleneck_v1/conv3/BatchNorm/gamma/Assign"
  input: "^resnet_v1_101/block3/unit_20/bottleneck_v1/conv3/BatchNorm/moving_mean/Assign"
  input: "^resnet_v1_101/block3/unit_20/bottleneck_v1/conv3/BatchNorm/moving_variance/Assign"
  input: "^resnet_v1_101/block3/unit_20/bottleneck_v1/conv3/weights/Assign"
  input: "^resnet_v1_101/block3/unit_21/bottleneck_v1/conv1/BatchNorm/beta/Assign"
  input: "^resnet_v1_101/block3/unit_21/bottleneck_v1/conv1/BatchNorm/gamma/Assign"
  input: "^resnet_v1_101/block3/unit_21/bottleneck_v1/conv1/BatchNorm/moving_mean/Assign"
  input: "^resnet_v1_101/block3/unit_21/bottleneck_v1/conv1/BatchNorm/moving_variance/Assign"
  input: "^resnet_v1_101/block3/unit_21/bottleneck_v1/conv1/weights/Assign"
  input: "^resnet_v1_101/block3/unit_21/bottleneck_v1/conv2/BatchNorm/beta/Assign"
  input: "^resnet_v1_101/block3/unit_21/bottleneck_v1/conv2/BatchNorm/gamma/Assign"
  input: "^resnet_v1_101/block3/unit_21/bottleneck_v1/conv2/BatchNorm/moving_mean/Assign"
  input: "^resnet_v1_101/block3/unit_21/bottleneck_v1/conv2/BatchNorm/moving_variance/Assign"
  input: "^resnet_v1_101/block3/unit_21/bottleneck_v1/conv2/weights/Assign"
  input: "^resnet_v1_101/block3/unit_21/bottleneck_v1/conv3/BatchNorm/beta/Assign"
  input: "^resnet_v1_101/block3/unit_21/bottleneck_v1/conv3/BatchNorm/gamma/Assign"
  input: "^resnet_v1_101/block3/unit_21/bottleneck_v1/conv3/BatchNorm/moving_mean/Assign"
  input: "^resnet_v1_101/block3/unit_21/bottleneck_v1/conv3/BatchNorm/moving_variance/Assign"
  input: "^resnet_v1_101/block3/unit_21/bottleneck_v1/conv3/weights/Assign"
  input: "^resnet_v1_101/block3/unit_22/bottleneck_v1/conv1/BatchNorm/beta/Assign"
  input: "^resnet_v1_101/block3/unit_22/bottleneck_v1/conv1/BatchNorm/gamma/Assign"
  input: "^resnet_v1_101/block3/unit_22/bottleneck_v1/conv1/BatchNorm/moving_mean/Assign"
  input: "^resnet_v1_101/block3/unit_22/bottleneck_v1/conv1/BatchNorm/moving_variance/Assign"
  input: "^resnet_v1_101/block3/unit_22/bottleneck_v1/conv1/weights/Assign"
  input: "^resnet_v1_101/block3/unit_22/bottleneck_v1/conv2/BatchNorm/beta/Assign"
  input: "^resnet_v1_101/block3/unit_22/bottleneck_v1/conv2/BatchNorm/gamma/Assign"
  input: "^resnet_v1_101/block3/unit_22/bottleneck_v1/conv2/BatchNorm/moving_mean/Assign"
  input: "^resnet_v1_101/block3/unit_22/bottleneck_v1/conv2/BatchNorm/moving_variance/Assign"
  input: "^resnet_v1_101/block3/unit_22/bottleneck_v1/conv2/weights/Assign"
  input: "^resnet_v1_101/block3/unit_22/bottleneck_v1/conv3/BatchNorm/beta/Assign"
  input: "^resnet_v1_101/block3/unit_22/bottleneck_v1/conv3/BatchNorm/gamma/Assign"
  input: "^resnet_v1_101/block3/unit_22/bottleneck_v1/conv3/BatchNorm/moving_mean/Assign"
  input: "^resnet_v1_101/block3/unit_22/bottleneck_v1/conv3/BatchNorm/moving_variance/Assign"
  input: "^resnet_v1_101/block3/unit_22/bottleneck_v1/conv3/weights/Assign"
  input: "^resnet_v1_101/block3/unit_23/bottleneck_v1/conv1/BatchNorm/beta/Assign"
  input: "^resnet_v1_101/block3/unit_23/bottleneck_v1/conv1/BatchNorm/gamma/Assign"
  input: "^resnet_v1_101/block3/unit_23/bottleneck_v1/conv1/BatchNorm/moving_mean/Assign"
  input: "^resnet_v1_101/block3/unit_23/bottleneck_v1/conv1/BatchNorm/moving_variance/Assign"
  input: "^resnet_v1_101/block3/unit_23/bottleneck_v1/conv1/weights/Assign"
  input: "^resnet_v1_101/block3/unit_23/bottleneck_v1/conv2/BatchNorm/beta/Assign"
  input: "^resnet_v1_101/block3/unit_23/bottleneck_v1/conv2/BatchNorm/gamma/Assign"
  input: "^resnet_v1_101/block3/unit_23/bottleneck_v1/conv2/BatchNorm/moving_mean/Assign"
  input: "^resnet_v1_101/block3/unit_23/bottleneck_v1/conv2/BatchNorm/moving_variance/Assign"
  input: "^resnet_v1_101/block3/unit_23/bottleneck_v1/conv2/weights/Assign"
  input: "^resnet_v1_101/block3/unit_23/bottleneck_v1/conv3/BatchNorm/beta/Assign"
  input: "^resnet_v1_101/block3/unit_23/bottleneck_v1/conv3/BatchNorm/gamma/Assign"
  input: "^resnet_v1_101/block3/unit_23/bottleneck_v1/conv3/BatchNorm/moving_mean/Assign"
  input: "^resnet_v1_101/block3/unit_23/bottleneck_v1/conv3/BatchNorm/moving_variance/Assign"
  input: "^resnet_v1_101/block3/unit_23/bottleneck_v1/conv3/weights/Assign"
  input: "^resnet_v1_101/block3/unit_3/bottleneck_v1/conv1/BatchNorm/beta/Assign"
  input: "^resnet_v1_101/block3/unit_3/bottleneck_v1/conv1/BatchNorm/gamma/Assign"
  input: "^resnet_v1_101/block3/unit_3/bottleneck_v1/conv1/BatchNorm/moving_mean/Assign"
  input: "^resnet_v1_101/block3/unit_3/bottleneck_v1/conv1/BatchNorm/moving_variance/Assign"
  input: "^resnet_v1_101/block3/unit_3/bottleneck_v1/conv1/weights/Assign"
  input: "^resnet_v1_101/block3/unit_3/bottleneck_v1/conv2/BatchNorm/beta/Assign"
  input: "^resnet_v1_101/block3/unit_3/bottleneck_v1/conv2/BatchNorm/gamma/Assign"
  input: "^resnet_v1_101/block3/unit_3/bottleneck_v1/conv2/BatchNorm/moving_mean/Assign"
  input: "^resnet_v1_101/block3/unit_3/bottleneck_v1/conv2/BatchNorm/moving_variance/Assign"
  input: "^resnet_v1_101/block3/unit_3/bottleneck_v1/conv2/weights/Assign"
  input: "^resnet_v1_101/block3/unit_3/bottleneck_v1/conv3/BatchNorm/beta/Assign"
  input: "^resnet_v1_101/block3/unit_3/bottleneck_v1/conv3/BatchNorm/gamma/Assign"
  input: "^resnet_v1_101/block3/unit_3/bottleneck_v1/conv3/BatchNorm/moving_mean/Assign"
  input: "^resnet_v1_101/block3/unit_3/bottleneck_v1/conv3/BatchNorm/moving_variance/Assign"
  input: "^resnet_v1_101/block3/unit_3/bottleneck_v1/conv3/weights/Assign"
  input: "^resnet_v1_101/block3/unit_4/bottleneck_v1/conv1/BatchNorm/beta/Assign"
  input: "^resnet_v1_101/block3/unit_4/bottleneck_v1/conv1/BatchNorm/gamma/Assign"
  input: "^resnet_v1_101/block3/unit_4/bottleneck_v1/conv1/BatchNorm/moving_mean/Assign"
  input: "^resnet_v1_101/block3/unit_4/bottleneck_v1/conv1/BatchNorm/moving_variance/Assign"
  input: "^resnet_v1_101/block3/unit_4/bottleneck_v1/conv1/weights/Assign"
  input: "^resnet_v1_101/block3/unit_4/bottleneck_v1/conv2/BatchNorm/beta/Assign"
  input: "^resnet_v1_101/block3/unit_4/bottleneck_v1/conv2/BatchNorm/gamma/Assign"
  input: "^resnet_v1_101/block3/unit_4/bottleneck_v1/conv2/BatchNorm/moving_mean/Assign"
  input: "^resnet_v1_101/block3/unit_4/bottleneck_v1/conv2/BatchNorm/moving_variance/Assign"
  input: "^resnet_v1_101/block3/unit_4/bottleneck_v1/conv2/weights/Assign"
  input: "^resnet_v1_101/block3/unit_4/bottleneck_v1/conv3/BatchNorm/beta/Assign"
  input: "^resnet_v1_101/block3/unit_4/bottleneck_v1/conv3/BatchNorm/gamma/Assign"
  input: "^resnet_v1_101/block3/unit_4/bottleneck_v1/conv3/BatchNorm/moving_mean/Assign"
  input: "^resnet_v1_101/block3/unit_4/bottleneck_v1/conv3/BatchNorm/moving_variance/Assign"
  input: "^resnet_v1_101/block3/unit_4/bottleneck_v1/conv3/weights/Assign"
  input: "^resnet_v1_101/block3/unit_5/bottleneck_v1/conv1/BatchNorm/beta/Assign"
  input: "^resnet_v1_101/block3/unit_5/bottleneck_v1/conv1/BatchNorm/gamma/Assign"
  input: "^resnet_v1_101/block3/unit_5/bottleneck_v1/conv1/BatchNorm/moving_mean/Assign"
  input: "^resnet_v1_101/block3/unit_5/bottleneck_v1/conv1/BatchNorm/moving_variance/Assign"
  input: "^resnet_v1_101/block3/unit_5/bottleneck_v1/conv1/weights/Assign"
  input: "^resnet_v1_101/block3/unit_5/bottleneck_v1/conv2/BatchNorm/beta/Assign"
  input: "^resnet_v1_101/block3/unit_5/bottleneck_v1/conv2/BatchNorm/gamma/Assign"
  input: "^resnet_v1_101/block3/unit_5/bottleneck_v1/conv2/BatchNorm/moving_mean/Assign"
  input: "^resnet_v1_101/block3/unit_5/bottleneck_v1/conv2/BatchNorm/moving_variance/Assign"
  input: "^resnet_v1_101/block3/unit_5/bottleneck_v1/conv2/weights/Assign"
  input: "^resnet_v1_101/block3/unit_5/bottleneck_v1/conv3/BatchNorm/beta/Assign"
  input: "^resnet_v1_101/block3/unit_5/bottleneck_v1/conv3/BatchNorm/gamma/Assign"
  input: "^resnet_v1_101/block3/unit_5/bottleneck_v1/conv3/BatchNorm/moving_mean/Assign"
  input: "^resnet_v1_101/block3/unit_5/bottleneck_v1/conv3/BatchNorm/moving_variance/Assign"
  input: "^resnet_v1_101/block3/unit_5/bottleneck_v1/conv3/weights/Assign"
  input: "^resnet_v1_101/block3/unit_6/bottleneck_v1/conv1/BatchNorm/beta/Assign"
  input: "^resnet_v1_101/block3/unit_6/bottleneck_v1/conv1/BatchNorm/gamma/Assign"
  input: "^resnet_v1_101/block3/unit_6/bottleneck_v1/conv1/BatchNorm/moving_mean/Assign"
  input: "^resnet_v1_101/block3/unit_6/bottleneck_v1/conv1/BatchNorm/moving_variance/Assign"
  input: "^resnet_v1_101/block3/unit_6/bottleneck_v1/conv1/weights/Assign"
  input: "^resnet_v1_101/block3/unit_6/bottleneck_v1/conv2/BatchNorm/beta/Assign"
  input: "^resnet_v1_101/block3/unit_6/bottleneck_v1/conv2/BatchNorm/gamma/Assign"
  input: "^resnet_v1_101/block3/unit_6/bottleneck_v1/conv2/BatchNorm/moving_mean/Assign"
  input: "^resnet_v1_101/block3/unit_6/bottleneck_v1/conv2/BatchNorm/moving_variance/Assign"
  input: "^resnet_v1_101/block3/unit_6/bottleneck_v1/conv2/weights/Assign"
  input: "^resnet_v1_101/block3/unit_6/bottleneck_v1/conv3/BatchNorm/beta/Assign"
  input: "^resnet_v1_101/block3/unit_6/bottleneck_v1/conv3/BatchNorm/gamma/Assign"
  input: "^resnet_v1_101/block3/unit_6/bottleneck_v1/conv3/BatchNorm/moving_mean/Assign"
  input: "^resnet_v1_101/block3/unit_6/bottleneck_v1/conv3/BatchNorm/moving_variance/Assign"
  input: "^resnet_v1_101/block3/unit_6/bottleneck_v1/conv3/weights/Assign"
  input: "^resnet_v1_101/block3/unit_7/bottleneck_v1/conv1/BatchNorm/beta/Assign"
  input: "^resnet_v1_101/block3/unit_7/bottleneck_v1/conv1/BatchNorm/gamma/Assign"
  input: "^resnet_v1_101/block3/unit_7/bottleneck_v1/conv1/BatchNorm/moving_mean/Assign"
  input: "^resnet_v1_101/block3/unit_7/bottleneck_v1/conv1/BatchNorm/moving_variance/Assign"
  input: "^resnet_v1_101/block3/unit_7/bottleneck_v1/conv1/weights/Assign"
  input: "^resnet_v1_101/block3/unit_7/bottleneck_v1/conv2/BatchNorm/beta/Assign"
  input: "^resnet_v1_101/block3/unit_7/bottleneck_v1/conv2/BatchNorm/gamma/Assign"
  input: "^resnet_v1_101/block3/unit_7/bottleneck_v1/conv2/BatchNorm/moving_mean/Assign"
  input: "^resnet_v1_101/block3/unit_7/bottleneck_v1/conv2/BatchNorm/moving_variance/Assign"
  input: "^resnet_v1_101/block3/unit_7/bottleneck_v1/conv2/weights/Assign"
  input: "^resnet_v1_101/block3/unit_7/bottleneck_v1/conv3/BatchNorm/beta/Assign"
  input: "^resnet_v1_101/block3/unit_7/bottleneck_v1/conv3/BatchNorm/gamma/Assign"
  input: "^resnet_v1_101/block3/unit_7/bottleneck_v1/conv3/BatchNorm/moving_mean/Assign"
  input: "^resnet_v1_101/block3/unit_7/bottleneck_v1/conv3/BatchNorm/moving_variance/Assign"
  input: "^resnet_v1_101/block3/unit_7/bottleneck_v1/conv3/weights/Assign"
  input: "^resnet_v1_101/block3/unit_8/bottleneck_v1/conv1/BatchNorm/beta/Assign"
  input: "^resnet_v1_101/block3/unit_8/bottleneck_v1/conv1/BatchNorm/gamma/Assign"
  input: "^resnet_v1_101/block3/unit_8/bottleneck_v1/conv1/BatchNorm/moving_mean/Assign"
  input: "^resnet_v1_101/block3/unit_8/bottleneck_v1/conv1/BatchNorm/moving_variance/Assign"
  input: "^resnet_v1_101/block3/unit_8/bottleneck_v1/conv1/weights/Assign"
  input: "^resnet_v1_101/block3/unit_8/bottleneck_v1/conv2/BatchNorm/beta/Assign"
  input: "^resnet_v1_101/block3/unit_8/bottleneck_v1/conv2/BatchNorm/gamma/Assign"
  input: "^resnet_v1_101/block3/unit_8/bottleneck_v1/conv2/BatchNorm/moving_mean/Assign"
  input: "^resnet_v1_101/block3/unit_8/bottleneck_v1/conv2/BatchNorm/moving_variance/Assign"
  input: "^resnet_v1_101/block3/unit_8/bottleneck_v1/conv2/weights/Assign"
  input: "^resnet_v1_101/block3/unit_8/bottleneck_v1/conv3/BatchNorm/beta/Assign"
  input: "^resnet_v1_101/block3/unit_8/bottleneck_v1/conv3/BatchNorm/gamma/Assign"
  input: "^resnet_v1_101/block3/unit_8/bottleneck_v1/conv3/BatchNorm/moving_mean/Assign"
  input: "^resnet_v1_101/block3/unit_8/bottleneck_v1/conv3/BatchNorm/moving_variance/Assign"
  input: "^resnet_v1_101/block3/unit_8/bottleneck_v1/conv3/weights/Assign"
  input: "^resnet_v1_101/block3/unit_9/bottleneck_v1/conv1/BatchNorm/beta/Assign"
  input: "^resnet_v1_101/block3/unit_9/bottleneck_v1/conv1/BatchNorm/gamma/Assign"
  input: "^resnet_v1_101/block3/unit_9/bottleneck_v1/conv1/BatchNorm/moving_mean/Assign"
  input: "^resnet_v1_101/block3/unit_9/bottleneck_v1/conv1/BatchNorm/moving_variance/Assign"
  input: "^resnet_v1_101/block3/unit_9/bottleneck_v1/conv1/weights/Assign"
  input: "^resnet_v1_101/block3/unit_9/bottleneck_v1/conv2/BatchNorm/beta/Assign"
  input: "^resnet_v1_101/block3/unit_9/bottleneck_v1/conv2/BatchNorm/gamma/Assign"
  input: "^resnet_v1_101/block3/unit_9/bottleneck_v1/conv2/BatchNorm/moving_mean/Assign"
  input: "^resnet_v1_101/block3/unit_9/bottleneck_v1/conv2/BatchNorm/moving_variance/Assign"
  input: "^resnet_v1_101/block3/unit_9/bottleneck_v1/conv2/weights/Assign"
  input: "^resnet_v1_101/block3/unit_9/bottleneck_v1/conv3/BatchNorm/beta/Assign"
  input: "^resnet_v1_101/block3/unit_9/bottleneck_v1/conv3/BatchNorm/gamma/Assign"
  input: "^resnet_v1_101/block3/unit_9/bottleneck_v1/conv3/BatchNorm/moving_mean/Assign"
  input: "^resnet_v1_101/block3/unit_9/bottleneck_v1/conv3/BatchNorm/moving_variance/Assign"
  input: "^resnet_v1_101/block3/unit_9/bottleneck_v1/conv3/weights/Assign"
  input: "^resnet_v1_101/block4/unit_1/bottleneck_v1/conv1/BatchNorm/beta/Assign"
  input: "^resnet_v1_101/block4/unit_1/bottleneck_v1/conv1/BatchNorm/gamma/Assign"
  input: "^resnet_v1_101/block4/unit_1/bottleneck_v1/conv1/BatchNorm/moving_mean/Assign"
  input: "^resnet_v1_101/block4/unit_1/bottleneck_v1/conv1/BatchNorm/moving_variance/Assign"
  input: "^resnet_v1_101/block4/unit_1/bottleneck_v1/conv1/weights/Assign"
  input: "^resnet_v1_101/block4/unit_1/bottleneck_v1/conv2/BatchNorm/beta/Assign"
  input: "^resnet_v1_101/block4/unit_1/bottleneck_v1/conv2/BatchNorm/gamma/Assign"
  input: "^resnet_v1_101/block4/unit_1/bottleneck_v1/conv2/BatchNorm/moving_mean/Assign"
  input: "^resnet_v1_101/block4/unit_1/bottleneck_v1/conv2/BatchNorm/moving_variance/Assign"
  input: "^resnet_v1_101/block4/unit_1/bottleneck_v1/conv2/weights/Assign"
  input: "^resnet_v1_101/block4/unit_1/bottleneck_v1/conv3/BatchNorm/beta/Assign"
  input: "^resnet_v1_101/block4/unit_1/bottleneck_v1/conv3/BatchNorm/gamma/Assign"
  input: "^resnet_v1_101/block4/unit_1/bottleneck_v1/conv3/BatchNorm/moving_mean/Assign"
  input: "^resnet_v1_101/block4/unit_1/bottleneck_v1/conv3/BatchNorm/moving_variance/Assign"
  input: "^resnet_v1_101/block4/unit_1/bottleneck_v1/conv3/weights/Assign"
  input: "^resnet_v1_101/block4/unit_1/bottleneck_v1/shortcut/BatchNorm/beta/Assign"
  input: "^resnet_v1_101/block4/unit_1/bottleneck_v1/shortcut/BatchNorm/gamma/Assign"
  input: "^resnet_v1_101/block4/unit_1/bottleneck_v1/shortcut/BatchNorm/moving_mean/Assign"
  input: "^resnet_v1_101/block4/unit_1/bottleneck_v1/shortcut/BatchNorm/moving_variance/Assign"
  input: "^resnet_v1_101/block4/unit_1/bottleneck_v1/shortcut/weights/Assign"
  input: "^resnet_v1_101/block4/unit_2/bottleneck_v1/conv1/BatchNorm/beta/Assign"
  input: "^resnet_v1_101/block4/unit_2/bottleneck_v1/conv1/BatchNorm/gamma/Assign"
  input: "^resnet_v1_101/block4/unit_2/bottleneck_v1/conv1/BatchNorm/moving_mean/Assign"
  input: "^resnet_v1_101/block4/unit_2/bottleneck_v1/conv1/BatchNorm/moving_variance/Assign"
  input: "^resnet_v1_101/block4/unit_2/bottleneck_v1/conv1/weights/Assign"
  input: "^resnet_v1_101/block4/unit_2/bottleneck_v1/conv2/BatchNorm/beta/Assign"
  input: "^resnet_v1_101/block4/unit_2/bottleneck_v1/conv2/BatchNorm/gamma/Assign"
  input: "^resnet_v1_101/block4/unit_2/bottleneck_v1/conv2/BatchNorm/moving_mean/Assign"
  input: "^resnet_v1_101/block4/unit_2/bottleneck_v1/conv2/BatchNorm/moving_variance/Assign"
  input: "^resnet_v1_101/block4/unit_2/bottleneck_v1/conv2/weights/Assign"
  input: "^resnet_v1_101/block4/unit_2/bottleneck_v1/conv3/BatchNorm/beta/Assign"
  input: "^resnet_v1_101/block4/unit_2/bottleneck_v1/conv3/BatchNorm/gamma/Assign"
  input: "^resnet_v1_101/block4/unit_2/bottleneck_v1/conv3/BatchNorm/moving_mean/Assign"
  input: "^resnet_v1_101/block4/unit_2/bottleneck_v1/conv3/BatchNorm/moving_variance/Assign"
  input: "^resnet_v1_101/block4/unit_2/bottleneck_v1/conv3/weights/Assign"
  input: "^resnet_v1_101/block4/unit_3/bottleneck_v1/conv1/BatchNorm/beta/Assign"
  input: "^resnet_v1_101/block4/unit_3/bottleneck_v1/conv1/BatchNorm/gamma/Assign"
  input: "^resnet_v1_101/block4/unit_3/bottleneck_v1/conv1/BatchNorm/moving_mean/Assign"
  input: "^resnet_v1_101/block4/unit_3/bottleneck_v1/conv1/BatchNorm/moving_variance/Assign"
  input: "^resnet_v1_101/block4/unit_3/bottleneck_v1/conv1/weights/Assign"
  input: "^resnet_v1_101/block4/unit_3/bottleneck_v1/conv2/BatchNorm/beta/Assign"
  input: "^resnet_v1_101/block4/unit_3/bottleneck_v1/conv2/BatchNorm/gamma/Assign"
  input: "^resnet_v1_101/block4/unit_3/bottleneck_v1/conv2/BatchNorm/moving_mean/Assign"
  input: "^resnet_v1_101/block4/unit_3/bottleneck_v1/conv2/BatchNorm/moving_variance/Assign"
  input: "^resnet_v1_101/block4/unit_3/bottleneck_v1/conv2/weights/Assign"
  input: "^resnet_v1_101/block4/unit_3/bottleneck_v1/conv3/BatchNorm/beta/Assign"
  input: "^resnet_v1_101/block4/unit_3/bottleneck_v1/conv3/BatchNorm/gamma/Assign"
  input: "^resnet_v1_101/block4/unit_3/bottleneck_v1/conv3/BatchNorm/moving_mean/Assign"
  input: "^resnet_v1_101/block4/unit_3/bottleneck_v1/conv3/BatchNorm/moving_variance/Assign"
  input: "^resnet_v1_101/block4/unit_3/bottleneck_v1/conv3/weights/Assign"
  input: "^resnet_v1_101/conv1/BatchNorm/beta/Assign"
  input: "^resnet_v1_101/conv1/BatchNorm/gamma/Assign"
  input: "^resnet_v1_101/conv1/BatchNorm/moving_mean/Assign"
  input: "^resnet_v1_101/conv1/BatchNorm/moving_variance/Assign"
  input: "^resnet_v1_101/conv1/weights/Assign"
}
node {
  name: "init_1"
  op: "NoOp"
}
versions {
  producer: 808
}
